output/train_h36m_gesture_autoencoder/3D_retrain_h36m_gesture_autoencoder/3D-autoencoder_checkpoint_best.bin (torch, 796235 bytes, 62 tensors)

pose_encoder.net.0.0.weight f4 [32, 27, 3]
00000000: 169e 5abe d10e 38be aadd 98be 88f2 a3bd
00000010: 9af8 1fbe 7000 43be 84f9 32bd 96e2 ce3c
00000020: f542 b9bd 32c9 b8bd 173d 26bd 3a5f 25bd
00000030: 7203 c63d 275c 433d 1f6f 413c e5d3 0b3e
00000040: ac73 a33b b880 923d 99e2 b73d a212 dc3d
00000050: 7609 c13d 0091 c1bd 55f2 4abd 6d65 2dbc
00000060: f433 e7bd 2c12 81bd 5ded 15bd 8d2a 3ebd
00000070: d58f 8dbd d20c 9b3d ef84 6b3e 8f1a 333e
00000080: 75af 4b3e ba69 25be 9e04 bebd 5e88 3ebe
00000090: 5ac7 2bbe f1ac 84be e6fc 11be aa20 613e
000000a0: 4137 843e 93f2 813e 06b2 88bc 9f3a d33a
000000b0: ef44 f63c 9d7c 113e 8b2e 913d 5544 bb3d
000000c0: bdea 56bd 5f9f 81bd a424 01be f636 9f3d
000000d0: 87b7 f2bd 90e8 b63c 2516 82bd 214b edbc
000000e0: 6363 9dbc 9d85 82be b24d 4ebe a38f 86be
000000f0: e6f9 503e 85c5 b83d ac6a 453e e47e d2bd
00000100: 89ab 89bd 12e4 ae3d 958b bbbe 9fe6 06bf
00000110: 1ee8 21bf 2999 993b d8ca 4d3d 2431 c0bc
00000120: 6d6e c53d f272 483e 83de 553e 5c2a dabe
00000130: 99d3 21bf 7ace 18bf 097f ae3e 5048 973e
00000140: 9f44 7d3e 64ec d6bb 7e29 a03d b583 023d
00000150: 5a40 1ebc 447d 50be 7057 6fbe e28b 1f3d
00000160: 4f7a 50be bf2a eebd 2f8d 6abc a46c 073e
00000170: e465 dc3d d3e2 df3d 5376 19bc 3b41 40bc
00000180: 9e72 edbd 2c66 cfbc eb60 52bd 94e7 563d
00000190: b44a 45bb b7de 0abd f619 0f3e f9ec 833d
000001a0: 2d1b 9abd e352 763d c477 babc 991e 23bd
000001b0: b00c 2e3d 2e0c eb3c 932a 183e ba45 19be
000001c0: 83ca c3bd 8743 f4bd 4ca1 e43d 8477 133d
000001d0: 1148 9e3d 81b0 8b3d 9e02 85bc fc0e 3f3e
000001e0: 2b98 aebd 1874 32be 266a 1ebe 9a0a acbd
000001f0: 4e00 993d 262e 55bd 2670 0ebd 0b51 883d
00000200: 74a4 c3bd 15f7 40bc 6390 7cbd a76f 60bd
00000210: 667e 78bd fa74 563d a60d 133d 0757 91be
00000220: 604e 0dbe 098c b1bc 7cac 0cbe 0e81 ecbd
00000230: 5945 cd3c a945 c4bd cd7d 77bd 27ac 48be
00000240: 26c6 52be 4557 a4bd 7c3f 4d3d 0178 abbe
00000250: 22e6 9abe 322b cabe b4fc a7be 4a8f 85be
00000260: 9a79 9cbe 6aae 973e 5ec1 783e 7311 993e
00000270: 6d75 6f3e a913 833e f973 983e 89a5 2cbf
00000280: ae21 30bf 2eb4 30bf 5436 783d 2417 e33c
00000290: 1d02 7cbd 7483 103e 05ce cf3c 4c23 0e3e
000002a0: f499 9c3c 9f2f d83d 690b 323d 58a4 29bd
000002b0: ae34 c0bd b1b2 55be 13b9 17be 814c a0be
000002c0: 90df 16be 7812 d7bd 12d7 7b3c 2936 9fbd
000002d0: 2535 63be 1c03 90be 9c13 51be b8f1 b73d
000002e0: 7b8f e6bc b231 88bd 9307 743e cfd4 873e
000002f0: ca94 993e c5e8 2a3e 9fd1 373e 3393 4c3e
00000300: 503e 9abd f9af 14be 449e 98bc f63c dcbd
00000310: e90e 173c 511d 623d 07cf a3bd 1557 7ebd
00000320: 89b6 39be d261 a3bd e284 64be bb0d 5fbe
00000330: d7bb 1abe cd63 24be ac9d d7bd 3a83 86bd
00000340: 0184 a9bd d8ae d23b adff f7bc caea 81be
00000350: 2a6d 7ebe 5307 3e3d e29a d4bb ae01 6dbd
00000360: b478 213e 7141 013e b1aa c1bc 6067 273e
00000370: 0f6a 043e e05d 123e 19a3 adbd 2c24 4bbd
00000380: 0bfd cbbd 974b 90be 537f 42be 22a5 a7be
00000390: d960 f73e d3bb d83e 4ebf 083f a4f1 3b3e
000003a0: c4c6 9f3e 7b98 443e 85e5 5b3e aa11 be3d
000003b0: 9813 ce3d bf25 8b3f 27ee 9d3e 0999 8c3f
000003c0: 06ea 95be d502 2cbd 57b1 b7be 5e52 c63d
000003d0: b6ad 433c b2c8 ff3c 7bca 5bbc 981d 94bd
000003e0: c4a0 2f3d e91b 193d 59f7 c2bd c6e9 88bd
000003f0: 88dc ae3d 0034 793d 107e 31bb 8e9b 813d
-0.21349367 -0.17974402 -0.29856616 -0.080052435 -0.15622178 -0.19043136 -0.043694988 0.025254529
-0.09045974 -0.0902275 -0.040585604 -0.04037402 0.09668626 0.047695305 0.0118062785 0.1365505
0.0049881544 0.071534574 0.08978767 0.107457414 0.09425633 -0.09451485 -0.049547512 -0.010583264
-0.11289206 -0.06302294 -0.03660332 -0.0464273 -0.069121994 0.07570805 0.22999929 0.174906
0.1989115 -0.16153613 -0.092782244 -0.18606707 -0.16775265 -0.25913194 -0.1425663 0.21985117
0.25823405 0.25380382 -0.01668645 0.0016115493 0.030062167 0.14207692 0.070889555 0.09143893
-0.052469958 -0.06329226 -0.12611634 0.07774155 -0.11851411 0.022327691 -0.0635188 -0.028966488
-0.01921243 -0.25492564 -0.20146826 -0.2628146 0.20407829 0.09022049 0.19278973 -0.10278109
-0.06722171 0.08539595 -0.3662993 -0.5269565 -0.6324481 0.0046874476 0.050242275 -0.023460932
0.09640203 0.19575098 0.20885663 -0.42610443 -0.632135 -0.5969006 0.34081295 0.29547358
0.24733208 -0.0065589417 0.07820414 0.031863887 -0.009658897 -0.20360285 -0.23373199 0.038951762
-0.20359157 -0.11629247 -0.014315887 0.13225037 0.107616216 0.10931935 -0.00936659 -0.011734302
-0.11594127 -0.025317274 -0.05136196 0.052466944 -0.003010434 -0.033903804 0.13974747 0.06441683
-0.075247146 0.06013764 -0.022762187 -0.039824102 0.04249257 0.028692331 0.14859991 -0.14968005
-0.095601104 -0.11926942 0.111635774 0.03600265 0.07728589 0.06820775 -0.0162366 0.1865806
-0.085251175 -0.17427099 -0.1547018 -0.084004596 0.07470761 -0.052045964 -0.03477492 0.06656083
-0.09552851 -0.011777659 -0.061661135 -0.05479398 -0.060667418 0.05235765 0.035901688 -0.2838671
-0.13799429 -0.02167322 -0.13737673 -0.11548053 0.025057482 -0.09583599 -0.060422707 -0.19596921
-0.205834 -0.08024458 0.05010937 -0.33489993 -0.30253702 -0.3948608 -0.32809985 -0.26085883
-0.30561525 0.29625255 0.24292514 0.29896125 0.23384638 0.25600937 0.2977598 -0.67440087
-0.6880139 -0.6902493 0.060598686 0.027720995 -0.061525453 0.14112645 0.025366792 0.13880652
0.01911638 0.10555958 0.043467913 -0.041416496 -0.09385048 -0.20868947 -0.14816694 -0.31308368
-0.1473372 -0.105015695 0.015371101 -0.07774002 -0.22188242 -0.28127372 -0.20417637 0.08981651
-0.028144589 -0.06650104 0.23831014 0.26529548 0.2999633 0.16690357 0.17951058 0.19978027
-0.075314164 -0.14520253 -0.018630154 -0.10753815 0.009219863 0.05520374 -0.07998472 -0.062094767
-0.18136038 -0.07977642 -0.22316316 -0.21782582 -0.15110718 -0.16053696 -0.105281204 -0.06567998
-0.08277131 0.0064295344 -0.030273283 -0.25374442 -0.2484633 0.046393704 -0.00648819 -0.05786293
0.15768701 0.1262262 -0.023640962 0.16348028 0.12931083 0.14293623 -0.08478374 -0.049595043
-0.099603735 -0.2818267 -0.18993883 -0.32743174 0.48316076 0.42330799 0.5341691 0.18353897
0.31206334 0.19198792 0.21474274 0.09280713 0.10062331 1.0870894 0.30845758 1.0984203
-0.29280108 -0.04199489 -0.35877487 0.09683679 0.011943271 0.031223629 -0.013414974 -0.07232207
0.042877927 0.037380133 -0.09519834 -0.06685214 0.08538157 0.060840607 -0.0027083196 0.06328498

pose_encoder.net.0.0.bias f4 [32]
00000000: 9196 67bb 11e7 acbd 9f56 38bd c836 c73d
00000010: fb4d 06be f21e 773d 628c 343d dac7 ecbb
00000020: 3475 8b3d 24c9 31bc 0c13 f83d 5e5c 6bbc
00000030: 0590 b0bc 9569 253e 4d88 cabc a67d 6e3e
00000040: 816d 81bd 9daf 633d e28b ffbd 8c0b d93c
00000050: e7ad 733d 55c7 313d 5d73 bdbd 9640 c2bb
00000060: da3d b43c 153a 1f3e 41e8 e2bc a592 cabd
00000070: bc88 8abe 70b8 8d3c b070 3abe 3613 863d
-0.0035337547 -0.0844251 -0.045004483 0.097272456 -0.13115685 0.060332246 0.044079192 -0.0072259726
0.06809464 -0.010851178 0.12113008 -0.014365284 -0.021553049 0.16153558 -0.024723196 0.23290119
-0.06319714 0.0555874 -0.124778524 0.026494764 0.059492018 0.04340299 -0.092505194 -0.0059281094
0.02200215 0.155495 -0.027698638 -0.098912515 -0.27057445 0.01729986 -0.1820705 0.06546633

pose_encoder.net.0.1.weight f4 [32]
00000000: 5c22 2d3f bdd3 133f 985d bc3f 2e34 4a3f
00000010: 263c 493f 7223 de3e e97e 493f 3dd1 0e3f
00000020: 2b98 213f de5b 0c3f 7543 1b3f 8657 383f
00000030: bb12 523f 2ad1 2d3f e91a f83e f39e 063f
00000040: 0bf5 2c3f 2481 3b3f a763 fb3e be0d 8f3f
00000050: 2150 4e3f 461c fd3e c040 053f 1158 1d3f
00000060: 65c8 333f 84a5 703f f3a6 273f defe 733f
00000070: 06a1 103f 61dc 7f3f 737e 773f 552e 2d3f
0.67630553 0.5774496 1.4716063 0.7898587 0.78607404 0.43386418 0.78709275 0.5578802
0.63122815 0.5482768 0.60649806 0.7200855 0.8205983 0.67897284 0.4845803 0.5258629
0.67561406 0.7324393 0.49099466 1.1176069 0.80591017 0.49435633 0.52051926 0.61462504
0.7022765 0.94002557 0.6548912 0.9531077 0.564957 0.99945647 0.9667732 0.6764882

pose_encoder.net.0.1.bias f4 [32]
00000000: 6ca8 4e3f 6b9e 9d3e 1642 ccbf 0ed9 803e
00000010: 710b f23e 0e35 593f 0347 0d3e 2151 db3f
00000020: 6753 6c3f 2e3b fd3f 209c 863e 9551 bd3e
00000030: b646 3a3f 1922 7e3e f92a 0040 c1ee 203f
00000040: 2498 c13e c461 f13c 8db7 cc3e fa6a 6abf
00000050: 9c1d f1be a2ff 0d40 2589 2c3f 91d3 253e
00000060: 0df2 a13d 67a0 2cbe 8a3a 373f c4ce 51bf
00000070: 11b5 3c3f 7dd9 08bf 9cb8 00bd 2fbf eb3e
0.8072574 0.30784926 -1.5957668 0.251656 0.47274354 0.8484658 0.1379662 1.7134134
0.9231476 1.9783685 0.2629099 0.36976305 0.72764146 0.24817695 2.0026228 0.6286431
0.37811387 0.029465564 0.39983788 -0.91569483 -0.47092903 2.2187276 0.67396766 0.16193987
0.07907496 -0.16858064 0.715737 -0.81956124 0.73713785 -0.5345686 -0.031426057 0.460443

pose_encoder.net.0.1.running_mean f4 [32]
00000000: 84fa 5bbe 2a0e 273f 51bb dabd d961 2c3e
00000010: bacb 2bbf cb62 263f a875 dabe 1c8f 8f3f
00000020: 2621 7a3f 94b8 253e 4955 7e3f c54b 01bf
00000030: 8f82 babe 37ef 713e f7b0 2e3f 348a aa3e
00000040: 6eb3 0dbf 2a75 023f 8530 103f 5b40 f23e
00000050: 3a1b 3d3f cd72 9d3d 3de7 0dbf 5614 cdbe
00000060: 5e9b 6bbe bb3a 29bd e4d6 dbbd e839 573f
00000070: ae32 5dbe a666 da3d 7fdb 113f 6850 7bbb
-0.21482283 0.6525599 -0.10680259 0.16834201 -0.6710774 0.64994496 -0.4266789 1.1215549
0.9770683 0.16183692 0.99348885 -0.5050624 -0.36427733 0.2362641 0.68238777 0.33308566
-0.5535191 0.5096003 0.56324035 0.47314724 0.7386967 0.07687912 -0.55430967 -0.40054578
-0.23008487 -0.041315775 -0.107343465 0.8407273 -0.21601364 0.1066411 0.5697555 -0.0038347486

pose_encoder.net.0.1.running_var f4 [32]
00000000: 3baa 0440 bf77 c43f dff2 4540 d2a4 2040
00000010: 218c 0540 6833 653f f3cb 843f 017e 2e3f
00000020: 06ea cd3f ff40 c13f 9ffd 883f ef78 bc3f
00000030: 4551 1a40 b283 f63f 4a09 b73f 77a3 e13f
00000040: ab73 e43f 2b61 2040 3698 903f 73d2 2740
00000050: 03aa 3c3f 728b 663f 3302 863f c4aa 7a3f
00000060: b93d 923f 2653 5c40 1102 9e3f 030f e73f
00000070: 3500 aa3f bc86 643f ca1d c03f c0d6 0d40
2.07289 1.5349044 3.0929487 2.5100598 2.0866778 0.89531565 1.037474 0.68161017
1.6087043 1.509796 1.0702399 1.4724406 2.4112103 1.925894 1.429971 1.762801
1.7847799 2.5059307 1.1296451 2.6222198 0.7369692 0.90056527 1.0469421 0.9791682
1.1425086 3.442575 1.2344381 1.8051456 1.3281313 0.8926809 1.5009091 2.2162323

pose_encoder.net.1.0.weight f4 [64, 32, 3]
00000000: 5f3a 783c 08ab f1bd 4f58 66bd 2c49 b4be
00000010: dcf0 e8be 5415 d9be 8719 a5be 162d 83bd
00000020: 8016 81be 1935 273d 142e 723d e1c0 e7bd
00000030: ec5f ac3e 8b18 703e b18f 883e 280a 0bbe
00000040: c80b 50be 20af 35be 0296 613e 3028 563e
00000050: 4fa1 653e fbd9 9abe 0595 14be 6115 45bd
00000060: f4c4 dcbc dc0f 3dbd 190f e53d d1fe 613f
00000070: 1ff5 353f 9f39 763f f66c 0b3d a4dc 0e3e
00000080: 7d46 853d 5fe0 8a3e bb64 623e e4ea 663e
00000090: e9fd 34ba 11aa 7e3d 1cfa ee3d 8a75 0fbe
000000a0: f827 ecbc a181 25be d6b6 093d 2b35 6cbd
000000b0: 2e37 ed3b 7efd 7c3e b770 753e cccf b13e
000000c0: 88e8 8b3d b519 bfbd 0f22 aabd 6b7d 9ebc
000000d0: 481d 72be eef4 8ebd a560 a7bd 9779 5e3c
000000e0: 41cc 0bbe 7019 23be 37ce 8ebd 6508 26bd
000000f0: ead6 66be 4f3f 3bbd 3b2a 45be 6a97 953e
00000100: 002f 453e eb10 863e 3acb 0bbe e99d 383c
00000110: bc51 d2bd c4d0 d0bd 9a17 4bbe c27e f0bd
00000120: 80e5 473e 3b40 c23d 237d 623c 327f debd
00000130: d429 eabd 747b 4bbe 85a9 c63c 2faf 8fbd
00000140: 1d56 b8bd ca33 563e 7bd4 213e cc28 0d3d
00000150: 676e d2bd 4fee b4bd ba59 00be 79e1 6fbd
00000160: 6cc7 0cbe 3dbd e6bd 5306 25be 5ff6 023d
00000170: 9a8b ebbc e50c 0abe 1528 9abd 483e 053e
00000180: d421 163f 8508 f83e 3334 323f 88b4 bf3e
00000190: c48a af3e 7e49 cb3e c668 1cbf 7d94 e5be
000001a0: a6aa 04bf f2af f43d 8d4d d93d c5f7 163e
000001b0: e055 833e fef0 5e3e b771 a43e 48ba 633e
000001c0: 7c46 703e 2945 783e 6c0d db3d 1654 29be
000001d0: 1c8a d5bd acc7 a83c 1275 39bd e760 0dbe
000001e0: 25f5 553d 94d4 41ba f284 41bd 9a5c ab3d
000001f0: cf5f 043e a6cd df3c 03a7 053e ce0f 94bc
00000200: 017e 563c fd64 3fbe c721 38be c67b aabe
00000210: e751 cd3d f021 843d 4c23 2e3e aeb4 97be
00000220: a2f4 63be fd3d a6be 3a78 0cbd 69f8 7bbe
00000230: 1831 4abe de93 513d 4f39 ee3d 9c9b 003e
00000240: 5957 c5bd 98cf 2b3d 6161 663d e269 1abe
00000250: 430f de3c 7e1c a2bc 4fec 173e d6b0 673d
00000260: c9c6 f23d b725 0cbf 8492 b8be 308a e2be
00000270: 6878 c53d 5776 123e 7352 613d 600c 0c3e
00000280: 1d93 d63d 0078 3a3e b4eb 59be fb88 9ebe
00000290: 2388 25be eda1 323d a420 21be 03a9 cdbd
000002a0: 8443 e1bd e223 0b3b 2885 053d bfd7 793d
000002b0: d132 823e 6999 973c a8a3 323d 57b5 7abd
000002c0: 01eb c7bd 4a21 213e ba72 9f3d 961f 723e
000002d0: 5b8d 943c 3a6a a93c e214 063e b6ab 9bbc
000002e0: b116 213b 5415 aa3d b012 57bb 40da 77bd
000002f0: 5b25 09be 6426 48be bd36 aebe a5c0 55be
00000300: b6e0 e3be 3359 cbbe 64ea 4abe 8ce2 403e
00000310: 4279 953e 1569 b93e d7b1 bb3d 7d0f 00bc
00000320: 8dd3 293d c606 96bd d2fb 9bbc b2ba 823d
00000330: f325 c5bb e36a 833d d678 84bd 4867 a5be
00000340: 8f7a 5cbe 5d31 b5be dc10 6d3d 69c8 c43d
00000350: 20ea 923d c990 f73d 52ac bc3d 6eed 203e
00000360: f494 1a3e c16f 003e e1c8 f13d 88db 053e
00000370: e5e1 0c3e 3aed 2cbd 4ef1 b13d a8a9 5e3e
00000380: 011b f53d a2e1 40be cc18 29be baa6 5fbe
00000390: c129 713e b2cf 3d3e 1aa7 763e f6a8 72bd
000003a0: d9a7 943d 87bd 92bc 950b a43e c54e 9d3e
000003b0: 499a ad3e 093e 3a3e 6a08 053e e4f0 053d
000003c0: 9804 60bd cf4a 30bd 6514 8c3d 0733 e4bd
000003d0: c063 d1bd d90e 80bd c28a b5be 2101 9dbe
000003e0: 6c05 d8be 8f9c 933e fabf ce3d bf0e 823e
000003f0: 9e72 3fbd 674e c5bc 0f53 193d 1650 a13e
0.0151506355 -0.118002 -0.05623656 -0.35212076 -0.4549626 -0.42399085 -0.32246038 -0.06405084
-0.2521248 0.040822122 0.059125975 -0.113160856 0.33666933 0.23446862 0.26672128 -0.13578093
-0.20316994 -0.17742586 0.2202988 0.20913768 0.22424816 -0.3024443 -0.14509971 -0.04811609
-0.026949383 -0.046157703 0.1118452 0.88279444 0.7107715 0.9618167 0.03403946 0.13951355
0.06507585 0.27124307 0.22108738 0.22550541 -0.00069042906 0.062173907 0.11668798 -0.14009681
-0.028827652 -0.16162731 0.03362163 -0.057667892 0.007239244 0.24706075 0.23968779 0.3472885
0.06831461 -0.09331075 -0.083072774 -0.019346913 -0.23643982 -0.069803104 -0.0817273 0.013578794
-0.13652135 -0.15927672 -0.06972926 -0.04053535 -0.2254292 -0.045714673 -0.19254391 0.29217082
0.1925621 0.26184782 -0.13651744 0.011268117 -0.10269496 -0.10196069 -0.19833222 -0.11742927
0.19521141 0.09484907 0.01382378 -0.10864104 -0.11433759 -0.19871312 0.024250755 -0.070158355
-0.090008 0.20918193 0.15803711 0.034462735 -0.10274964 -0.08834516 -0.12534228 -0.058564637
-0.13747948 -0.11266563 -0.16115694 0.03197324 -0.02875309 -0.13481481 -0.07527176 0.1301204
0.5864537 0.48444 0.696109 0.37442422 0.34285557 0.39704508 -0.6109737 -0.4483985
-0.5182289 0.119476214 0.10610495 0.14742954 0.25651455 0.21771619 0.32118008 0.2223903
0.23464388 0.24245133 0.106959194 -0.16535982 -0.10426733 0.020603023 -0.045277663 -0.13806497
0.05223574 -0.00073940423 -0.047245927 0.08367272 0.12927173 0.02731974 0.13051991 -0.018073943
0.013091565 -0.18690868 -0.17981635 -0.33297557 0.10025387 0.064517856 0.17005652 -0.29630035
-0.22261289 -0.32469168 -0.034294344 -0.2460648 -0.1974529 0.051166408 0.116320245 0.1255936
-0.09635801 0.041946024 0.05624521 -0.15079454 0.027106887 -0.019788977 0.14836238 0.05656513
0.118543215 -0.5474505 -0.36049283 -0.44246054 0.09642106 0.14302956 0.05501027 0.13676596
0.104772784 0.18209839 -0.2128132 -0.30963883 -0.16165213 0.043611456 -0.15735108 -0.10042002
-0.10999206 0.0021231105 0.03259769 0.060996767 0.25429395 0.018505769 0.043613106 -0.061208095
-0.0976162 0.15735355 0.07785554 0.23644862 0.01813381 0.020680536 0.13093904 -0.019002777
0.0024580176 0.08304849 -0.0032817535 -0.060510874 -0.13393156 -0.19545895 -0.34026137 -0.2087427
-0.44507378 -0.3971649 -0.19815975 0.18836421 0.29194075 0.36212984 0.0916478 -0.007816193
0.041461516 -0.07325511 -0.019040976 0.063832656 -0.006016487 0.064168714 -0.0646836 -0.3230536
-0.21531127 -0.35389224 0.057877406 0.09608538 0.07173562 0.120881625 0.09212555 0.15715572
0.15095884 0.1254263 0.11805893 0.13072026 0.13758047 -0.042218424 0.08688603 0.21744406
0.11968041 -0.18836072 -0.16513366 -0.21840945 0.23551084 0.1853626 0.24087182 -0.059243165
0.07258577 -0.01791264 0.32040086 0.3072416 0.33906773 0.18187727 0.12991491 0.032700434
-0.05469188 -0.043040093 0.068398274 -0.11142545 -0.10224104 -0.06252832 -0.35457426 -0.30664924
-0.42191637 0.28830382 0.100952104 0.25401875 -0.046740167 -0.024085237 0.037432726 0.31506413

pose_encoder.net.1.0.bias f4 [64]
00000000: 476f 1bbe 339d d53c 87b9 97bc 95f9 663e
00000010: be42 773d 46de 893d 04bb f93d ac65 3e3e
00000020: 393a e4be 8183 593e c0c6 a6bd e1c9 de3e
00000030: 6886 b63c 9843 25be d5fd b63d cea4 20be
00000040: 96f5 323e cf0e ecbe c1e0 623e e0e1 0b3d
00000050: bafc b93e cb0e bf3c c616 123c 09f0 593d
00000060: e64b adbd 7b2f 223e 83a4 8c3e 8df5 783d
00000070: eea1 4a3e 2346 b4be 4fef 13bd 8855 2c3d
00000080: 6fa6 853d 6bbf 91bc a02c 9f3d 8337 f13d
00000090: 14a5 843e 6500 afb8 6ee3 83be 03bd cc3d
000000a0: 8bfa 9d3e 67d3 ac3e 502b 53bd 4383 a33c
000000b0: db35 3b3d a489 6e3f aa90 9c3e 4b09 0d3e
000000c0: c3d6 d83d bccb 5d3e ca72 223e ca99 0d3e
000000d0: 95dc b03d 4252 b13d 6c8c 433e b336 1c3e
000000e0: 2967 d7bc 259d 28be 7840 0f3e 8c42 bf3d
000000f0: 8036 4c3d e9be 8b3d 86b2 463e e9c8 903e
-0.15179168 0.026075935 -0.018521084 0.22556145 0.060366385 0.067318484 0.121938735 0.18593472
-0.4457567 0.21241571 -0.08143377 0.43513396 0.022280887 -0.16139066 0.08935133 -0.15687868
0.17476496 -0.46105048 0.2215605 0.034150958 0.36325628 0.023322484 0.008916562 0.05320743
-0.08461742 0.15838425 0.27469262 0.06078105 0.19788334 -0.3520976 -0.036116894 0.042073756
0.06525885 -0.01779147 0.077721834 0.11778166 0.25907195 -8.344724e-05 -0.25759453 0.099969886
0.30855212 0.33755037 -0.051554978 0.019960051 0.045705657 0.9317877 0.3057912 0.13773076
0.105878375 0.2165975 0.15864101 0.13828197 0.08635823 0.086582676 0.19096535 0.15255241
-0.026294308 -0.16466196 0.13989437 0.09338865 0.049856663 0.068235226 0.19404039 0.28278282

pose_encoder.net.1.1.weight f4 [64]
00000000: 6656 c53e 25f0 463f 5d8e 4e3f 0c66 c93f
00000010: 54c3 223f b3e3 923f 9ae6 473f 40d1 643f
00000020: 6a4a ab3e eb97 1f3f f4e6 283f 4d0b 483f
00000030: cb73 3a3f 20f2 6b3f ffc5 513f 5fd5 183f
00000040: 8b0e 2a3f 99d4 e33f e01b 8d3f fce9 413f
00000050: ce7d 5a3f 1324 fa3e 96a9 7c3f 61df 0e3f
00000060: 02c2 203f 246e 853f 2ce6 023f 7be9 0f3f
00000070: a329 db3f 5fc9 ab3f 4fff bc3e d71b 343f
00000080: dbee a53e fc2e 0d3f 1f9c 393f 761f 863f
00000090: 08b0 a23e 423e 5d3f e92d 013f 90b7 3a3f
000000a0: 40f4 8a3f 02c5 a13f 674d f43e 3c3d 4a3f
000000b0: fc04 4c3f de69 013f ec7d 2f3f e8ef 1c3f
000000c0: c589 f23f e557 413f e16e f23e ba73 b03e
000000d0: 29a0 343f 1cba 8f3f af03 813f 8f8c 263f
000000e0: 9f80 093f b2eb 133f 6b7e 913f 4e7d 923f
000000f0: 144c 653f 2178 2d3f e02f 513f f753 223f
0.3854248 0.7771018 0.8068598 1.5734267 0.635793 1.1475738 0.78086245 0.8938179
0.3345521 0.62341183 0.65977407 0.78142244 0.72832936 0.9216633 0.81942743 0.5970058
0.6642844 1.7799255 1.1024132 0.75747657 0.8534821 0.48855647 0.9869627 0.558096
0.6279603 1.0424237 0.51132464 0.5621564 1.7122082 1.3420829 0.36913535 0.7035498
0.32408795 0.5514982 0.72503847 1.0478351 0.31774926 0.8642312 0.5046068 0.72936344
1.0855789 1.2638247 0.47715303 0.78999686 0.79695106 0.50552166 0.68551517 0.6130357
1.8948294 0.7552474 0.4735022 0.34463292 0.70556885 1.1228671 1.0079249 0.65058225
0.53711885 0.5778152 1.1366705 1.144449 0.8956921 0.6776143 0.81713676 0.6340937

pose_encoder.net.1.1.bias f4 [64]
00000000: 3c5f 873e b9a6 f73e 980d 19bf 5887 7cbf
00000010: 87be c13d b6c1 2fbf d68f d2be 9b2f 69bf
00000020: 49b2 c83e 11f4 5dbf 4992 2d3e 2ab2 0dbf
00000030: 5031 0bbf c270 72bf 4483 b23e 8f30 923d
00000040: 34af bfbe bbf4 043f 750a 69bd 65ee 953e
00000050: a045 13bd 6ff8 0ebe 8c1e 2abf e37b c9bb
00000060: f372 52be 3951 fd3e 630d 94be 417e 0c3d
00000070: eeac 5dbe ec53 803f f0b0 9d3e 4f5e d93d
00000080: 778f 753e d3ec a23d 58c5 95be 7ae2 10be
00000090: d14a 60bd 8193 a53e 9e93 fd3e fa77 973e
000000a0: 7c64 35bf d579 89bf e726 ff3c f83d b2be
000000b0: 5eb7 5dbd 1bf5 253f 59ca 23bf e5ec 453d
000000c0: 150a 87bf 8aae 543e 3c94 3d3e a417 8c3f
000000d0: bb29 5cbf eae0 9abf affc a5be 4fc8 22bf
000000e0: 1163 acbe 4634 6abe 6953 97be 7f23 1bbf
000000f0: 8c13 b2be 7bfc 0dbf 57fe c6be 2dd1 c83e
0.26439846 0.48369387 -0.5978637 -0.9864402 0.09460168 -0.68654954 -0.41125363 -0.91088265
0.3919852 -0.8670054 0.16950335 -0.5534998 -0.5437212 -0.94703305 0.34865773 0.07138168
-0.37438357 0.5193593 -0.05689474 0.29283443 -0.03595507 -0.13961957 -0.6645286 -0.0061488017
-0.20551662 0.4947603 -0.28916463 0.034300093 -0.21647999 1.0025611 0.30799055 0.10613691
0.23980509 0.07955327 -0.29252124 -0.14148894 -0.05475885 0.323391 0.49526685 0.29583722
-0.7085645 -1.0740305 0.03114648 -0.34812903 -0.05412995 0.64827126 -0.63980633 0.048321623
-1.0549952 0.20769706 0.18513578 1.0944715 -0.86001176 -1.2099888 -0.32419345 -0.63586897
-0.33669332 -0.22871503 -0.29555824 -0.6060104 -0.34780538 -0.5546338 -0.3886592 0.39222088

pose_encoder.net.1.1.running_mean f4 [64]
00000000: c7da b240 7c11 3240 6532 8640 8e0e 85bf
00000010: 35fd 6340 c14c 34bf 54ce 22c0 c6f7 73c0
00000020: 369c 8e40 ca1c 923e 1759 e03f c9d1 12c0
00000030: b82b 18bf 46f5 04c0 3d64 c03f c7e8 3140
00000040: b6e9 f73f bbf3 25bf 7b48 d0be 3005 b23f
00000050: 59d0 71c0 7a9e 953f 0206 fcbf a62b e4c0
00000060: 8142 37bf e9d3 bb3b b758 33bd acaa ab40
00000070: fdf6 da40 0b29 ea3e 2197 a840 72c9 e3bf
00000080: 37dd 6b40 b242 d03f f1cf 5040 5434 2c3e
00000090: 76c7 2bc0 7794 8dbf 4fd7 dc3f c881 9240
000000a0: d4fb 07c0 cbfa 36be 59cc 14be 1d68 0ac0
000000b0: b2d9 943e 9ebb 31c1 b837 c1bf db40 92bf
000000c0: 7a43 e7be 1dfd 9b40 9ef7 933f 3756 a9bf
000000d0: 9b8c a8bf fd79 39c0 b1b3 ef3d 2df2 883f
000000e0: 5d6d 3a3f 3db9 c840 45b6 8740 8cff 14c0
000000f0: 9ee6 d8bf 05ec 6cbf 8983 ac3f cf2f a33f
5.589206 2.7823172 4.1936517 -1.0395067 3.5623295 -0.7042962 -2.5438433 -3.811998
4.4565687 0.2853759 1.7527188 -2.2940543 -0.5944171 -2.0774703 1.503059 2.7798326
1.9368198 -0.6482503 -0.40680298 1.3907833 -3.7783415 1.1688988 -1.9689333 -7.130328
-0.7158585 0.005732049 -0.043785777 5.364584 6.84265 0.45734438 5.2684484 -1.7795851
3.685377 1.6270354 3.2626917 0.16816837 -2.6840491 -1.1060933 1.7253207 4.5783424
-2.1247454 -0.17869107 -0.14531077 -2.1626046 0.29072338 -11.108305 -1.5095129 -1.1426042
-0.45168668 4.8746476 1.1559942 -1.3229436 -1.3167909 -2.8980706 0.11704195 1.0698906
0.72823125 6.272612 4.2409997 -2.3280973 -1.6945379 -0.9254764 1.3477641 1.2748965

pose_encoder.net.1.1.running_var f4 [64]
00000000: 4b52 8640 c930 ae40 33aa 5740 0a37 c140
00000010: f02b 4240 c2e2 b23f 7dab 0a41 4a48 d640
00000020: 0630 5440 4f44 ab3f b279 3d40 8d37 1940
00000030: e7c7 8240 ebe6 7540 1468 1f41 02fe 4a40
00000040: 3301 4040 77ae 9c3f f73b f841 8961 ed40
00000050: 084f 9940 6096 893f 541b a340 b8a4 4f40
00000060: b4f5 ed40 d2ef 5141 a305 2540 2470 1c40
00000070: a066 a940 fcfa ed40 ec52 1d40 f786 c240
00000080: e20e 0740 25c7 e840 cf03 6440 311e 563f
00000090: f483 803f cd31 9b40 0c26 c440 fac5 a740
000000a0: 9499 c641 0f74 ff40 6616 5640 4547 0241
000000b0: 3d25 fc40 5db5 3440 755f 1740 b81d b13f
000000c0: d5c0 ee3e 920d 7b40 f750 1440 2f4a e53f
000000d0: ddbc a440 c2a3 9241 441b 1f41 65b1 4040
000000e0: e57d eb3f 8f24 9b40 d383 d040 3b64 3f41
000000f0: 34a7 4440 f270 1540 097f d840 7d48 d040
4.1975455 5.443455 3.3697631 6.0379686 3.0339317 1.3975451 8.666867 6.6963243
3.315431 1.3380221 2.9605527 2.3940156 4.086902 3.842219 9.96291 3.1717534
3.0000732 1.2240742 31.02928 7.418156 4.7908974 1.0749016 5.097086 3.2444286
7.436243 13.12105 2.578469 2.4443445 5.2937775 7.4368877 2.4581861 6.078975
2.1102834 7.2743096 3.5627325 0.8363982 1.0040269 4.849829 6.1296444 5.242917
24.82499 7.9829173 3.345117 8.1424 7.8795457 2.8235695 2.3652012 1.3837194
0.46631494 3.9227033 2.3174417 1.7913264 5.1480546 18.32996 9.944157 3.0108273
1.8397795 4.8482127 6.516092 11.96197 3.0727053 2.3350186 6.765507 6.5088487

pose_encoder.net.2.0.weight f4 [64, 64, 4]
00000000: b6d6 b63d e5a8 89bd b739 91bd b93e 04bc
00000010: c204 133e 9167 90bd 601a fabc fb8b d83d
00000020: 3e03 cabd 9687 d0bc 674b c6bb d78e 37bc
00000030: 2f1f ddbd 63f0 9dbd 63ae 40bd 51de 4a3d
00000040: 1523 913d e3f4 803e 08f5 443e 250f 4bbc
00000050: 8f1a 2c3d 639e 4ebc 391d 5dbd f3a3 6e3d
00000060: 5521 0a3e 3aa4 0e3e 5e0c f83d 4202 f93d
00000070: ddb5 d33d 6fad 023e 6705 763d 8ace 523e
00000080: 886c 103b d7cc a8bb 1878 3e3d 4394 28bd
00000090: 61f4 de3d 9631 f23d 41fb 023e e5a0 3b3e
000000a0: 1647 e23d 34c8 0dbd 0f12 c8bd 0667 a43d
000000b0: b09f 9e3d c0fb 4e3e 4539 443e 2e35 ba3d
000000c0: fa64 70bd e566 fabd 8f7e 1ebe f37c a63b
000000d0: 3442 d1bd f619 c6bd bd25 e9bd dc9f 22be
000000e0: b92d 42bd 2b91 fabc dee7 d6bc dca1 74bd
000000f0: e51a 013f 615d ac3e 5cfb b03e 8271 be3e
00000100: 9728 12be 9c88 133e 4ad6 333e a157 8b3b
00000110: 2479 debd 4a75 e5bd 72ab 4cbe 2ccf 6ebe
00000120: b0d4 b73d 022c bf3d 8078 1b3e 1191 483e
00000130: 949b a7bd 38f7 d6bd e351 9abe 704f 7dbe
00000140: e3ae d1bc b20d febd e0ed 48be e062 17bd
00000150: 2baf c33d 5c25 393e 479d 3e3e 4983 223e
00000160: 9626 163d 4269 4b3b e863 12bd 039c a8bd
00000170: 10a5 8f3d 9cca db3c cb9a d1bc 5225 5a3d
00000180: 0825 dfbd 4ea4 73bc e639 8aba e685 003c
00000190: 529c 7ebe 06e9 97bd 2875 e2bd aaff 7bbe
000001a0: 08a8 a6bc 778b e43d c57a afbc 2ddd 95bd
000001b0: 7deb 053c f64d 0c3d b06a 3ebd 12a4 d2bd
000001c0: 9929 153e 4d1e d63d 24a1 bf3d a954 b23d
000001d0: 5cc4 b93d 39aa 4d3b b9de 4abd 10e9 46bd
000001e0: 468c a93e 69da 693e 8a87 813e 7ae8 393e
000001f0: 98c9 263d 0fed 1fbd dfd7 79bd 9f60 3dbd
00000200: 5695 9b3e 8860 793e 3660 6a3e cd59 653e
00000210: 02c1 6d3e 6995 0b3e f553 963d d0f4 8e3e
00000220: 91f3 59be b545 2bbe 2724 0ebe bc89 b9bd
00000230: a4eb 29be 0bd0 81bd 9b55 e9bd 6aed bfbd
00000240: 6f94 27be b32d 9f3c b229 1abc b59a 943c
00000250: 22d1 9dbd faba 863d e6d1 5b3d 16b2 0b3e
00000260: 8a72 6ebd 3d81 29be 7564 89be 1a6a abbe
00000270: 1362 873e cc71 883e 5aeb 683e 5002 ed3e
00000280: df0e ab3e 2531 9d3e 9d8b 933e 710a b43e
00000290: 912e c43d a45a 493e 6548 833e 62b1 763e
000002a0: acb1 c93d db5f 153e c2e6 e33d 0fd0 b03e
000002b0: c589 a03c d1ca a43c fae5 ccbc 979e 563c
000002c0: 3890 9ebe 203b 33be 8d6b 2fbe 14d5 78be
000002d0: fdeb 5c3e 4eed a53d 2f91 153e 1a75 0c3e
000002e0: f72d 9dbd af74 0cbe 7c38 dbbd 93f8 323d
000002f0: 607d f73e ef8c dc3e 8de3 b33e 9986 e83e
00000300: f2ef 68bd 3f91 cabd 8908 3cbe 734f 66be
00000310: 50bc 3c3e 2cdf c33d 2219 123e b9b6 483e
00000320: f18d 3dbf cf97 0abf 55ce 09bf c493 22bf
00000330: c86e e33b f47a bc3d f4a3 f13d cefd ebbc
00000340: 99f1 c0be 53d3 8fbe a440 b7be b9b0 66be
00000350: 1606 ce3b 3898 ef3c d37e 3a3d a8eb e43d
00000360: e481 da3e 698d 7e3e e22c 463e c26f a23e
00000370: caf3 a53d d689 583d c139 ac3d ce9f 083d
00000380: ae8a 25be 99b7 3cbe 9a0b 9bbe f371 d1be
00000390: 3f1f af3e 9261 8a3e ac7e 5c3e a44f 9b3e
000003a0: ad10 f73d 1961 3d3d 02de 993c 6825 65bd
000003b0: 9253 513f 7eb7 363f 2058 313f 172b 803f
000003c0: 2be8 0d3e 0b1b 493d d9df d03c cfa4 1c3d
000003d0: ddef 403e d7fa b93d 4a1b ad3c 5099 053e
000003e0: 5cdf 1bbe 9c51 69be 903e fcbd fcb7 c9bd
000003f0: c3c8 1b3d 06a6 9e3d e456 af3c 3a84 5e3d
0.089276716 -0.06721667 -0.07091086 -0.008071595 0.14357284 -0.07051004 -0.030530155 0.10573574
-0.098639 -0.025455277 -0.006051469 -0.011203489 -0.107969634 -0.07711866 -0.047041308 0.049528424
0.070867695 0.25186834 0.19234097 -0.012393747 0.042017516 -0.0126110045 -0.053982947 0.058261823
0.13489278 0.13929835 0.12111734 0.12158634 0.10337422 0.12761472 0.060063746 0.20586601
0.0022037346 -0.005151372 0.04650125 -0.04115702 0.10886455 0.11825864 0.12791158 0.18323095
0.11048715 -0.034614757 -0.097690694 0.08027463 0.07745302 0.20213223 0.19162472 0.090921745
-0.05869005 -0.12226657 -0.15477966 0.005080813 -0.10217705 -0.096729204 -0.11384151 -0.15881294
-0.047406886 -0.0305868 -0.02623361 -0.059724674 0.5043166 0.33664992 0.34566772 0.37195975
-0.14273296 0.14407581 0.17562214 0.0042523895 -0.108629495 -0.11204012 -0.19987276 -0.23321217
0.08976114 0.09334566 0.15182686 0.19586588 -0.08183971 -0.10496372 -0.301406 -0.24737334
-0.025596088 -0.12404956 -0.19621992 -0.03695953 0.09554895 0.18080658 0.18614684 0.15870394
0.036657892 0.003103808 -0.03573981 -0.08232882 0.07013905 0.02683001 -0.025586506 0.053258248
-0.10895735 -0.014870716 -0.001054582 0.007844424 -0.24864319 -0.074174926 -0.11057502 -0.24609247
-0.020343795 0.11159413 -0.021420846 -0.073175766 0.008173821 0.034254037 -0.046488464 -0.102852
0.1456665 0.10454998 0.09356907 0.08707554 0.09070656 0.0031381978 -0.04952881 -0.04856211
0.33114833 0.22837223 0.2529872 0.18155089 0.0407196 -0.039044436 -0.060996886 -0.046234723
0.30387372 0.2435323 0.22888264 0.22397538 0.23218158 0.13631214 0.07340232 0.27921152
-0.2128432 -0.1672581 -0.13880979 -0.09059474 -0.16593796 -0.06338509 -0.11393281 -0.09371455
-0.16365217 0.01943097 -0.009409355 0.018140176 -0.077059045 0.06578632 0.05366697 0.13642153
-0.0582147 -0.16553207 -0.26834455 -0.33479387 0.26442012 0.2664932 0.2274603 0.46290827
0.33409783 0.30701557 0.28817454 0.35164216 0.09579194 0.19663483 0.2564117 0.24091104
0.09848341 0.14587347 0.11127998 0.34533736 0.019596944 0.020116242 -0.025012005 0.013099334
-0.30969405 -0.17503023 -0.17130871 -0.24300033 0.21574397 0.08101903 0.14606164 0.13716546
-0.07674783 -0.13716386 -0.10704133 0.04369409 0.4833784 0.43076274 0.35134545 0.4541519
-0.056869455 -0.09890985 -0.18362631 -0.22491245 0.1843121 0.09564051 0.142674 0.19600953
-0.7404471 -0.5413789 -0.5383046 -0.6350672 0.0069406964 0.09203139 0.1179885 -0.028807547
-0.37684324 -0.28090915 -0.35791504 -0.22528352 0.0062873466 0.029247388 0.045531105 0.1117776
0.42677224 0.24858631 0.19353059 0.3172589 0.0810314 0.052865826 0.08409453 0.033355527
-0.16166183 -0.18429412 -0.3028229 -0.4090725 0.34203526 0.27027565 0.21532696 0.30334198
0.120637275 0.046235178 0.01878262 -0.055943877 0.81768143 0.71373737 0.69275093 1.001315
0.13858096 0.049098056 0.025497364 0.03824311 0.188415 0.09081047 0.021131177 0.13046765
-0.15221924 -0.22785038 -0.1231662 -0.09849545 0.03803326 0.0774651 0.021403737 0.05432532

pose_encoder.net.2.0.bias f4 [64]
00000000: 0419 173c 3d74 923d a9b0 80bc bc98 113d
00000010: b411 d6bd 2393 5e39 8798 2a3e dac7 b53c
00000020: 7021 a3bb 867d 973c 9ed3 3e3d 9f0f 153f
00000030: 85ea 083e 79a0 0bbd c0df 983e a97d 1d3e
00000040: c6d5 cdbc 7503 c63e e0fe c23d bdd3 323e
00000050: a1eb 113e 6fd8 0e3c 5f52 673c 8800 ae3e
00000060: c3e5 42be 0ebf 173d 741f e93d 19d9 393d
00000070: 8c1a 0c3d 9b6c 96bd 5503 9b3d a6ec 163f
00000080: fcff 713e 111f 8d3c 25c0 b23e 8801 413d
00000090: ea23 843d 24c2 c43d 6862 743e 1dad 903d
000000a0: 8257 10bd a6cb d33d b839 94bb c388 c03d
000000b0: e948 933d 415c 443e 8c5c 15bd 0c64 71bd
000000c0: 2dc4 643e 4a24 0c3e 29bb 243d c530 03be
000000d0: a2b0 4d3f 8e71 7c3d 986f 123e 3486 223e
000000e0: b6c7 0abe 9da8 133e 48fa 533e eea8 c43d
000000f0: 8ffe 413e 7770 213e 9eb7 763d e067 9c3d
0.009222273 0.07151077 -0.015709238 0.03554605 -0.10452595 0.00021226383 0.16659747 0.022190023
-0.0049783513 0.018492471 0.046588533 0.5822696 0.13370712 -0.034088586 0.29858208 0.15379967
-0.02512635 0.38674513 0.0952127 0.17463584 0.14250042 0.008718594 0.01411876 0.3398478
-0.1903296 0.03704744 0.11382952 0.045373056 0.034205005 -0.073449336 0.07568995 0.58954847
0.23632807 0.017226728 0.3491222 0.0471206 0.064521626 0.09607342 0.23865664 0.07064269
-0.035239704 0.10341577 -0.004523482 0.09401085 0.07191641 0.19175817 -0.036465213 -0.058933303
0.2234046 0.13685718 0.040217552 -0.12811573 0.80347645 0.06163173 0.14300382 0.15871507
-0.13552746 0.1441979 0.20700943 0.09602533 0.18944763 0.15765558 0.060233705 0.07637

pose_encoder.net.2.1.weight f4 [64]
00000000: 283d fc3e ce08 2d3f e6ea c43f 60bb 313f
00000010: ac4c 6d3f e23f 9c3f c619 7f3f 4393 413f
00000020: 9ef5 da3e bfe1 5c3f 432d 123f 567b 8e3f
00000030: 3fb0 013f 7f44 293f 6505 2b3f c1eb e93e
00000040: 1b59 4b3f eeb3 1e3f c559 963f 30f7 113f
00000050: 98ab 043f fc46 7c3f 80da 1b3f c849 fc3e
00000060: 6b60 733f 1cdd 533f e975 e73e 56c4 1f3f
00000070: 44d6 513f 4369 b63f f2ca 5f3f c996 5e3f
00000080: 04ba d93e 0abe 153f 289b 6c3f 5146 b13f
00000090: 6106 2e3f 934f 623f 2840 5a3f ce28 133f
000000a0: 9550 323f 3596 953f f1ff 223f c081 303f
000000b0: a884 023f b1d8 1c3f 3d98 c53f ee73 393f
000000c0: fc80 ed3e 0175 063f 889c f53e 29e3 9e3e
000000d0: 7c99 a83f c406 303f 0308 593f 08bf 663f
000000e0: 731e 3d3f 61f7 393f 05aa 483f 1931 a13f
000000f0: 13d5 223f 4513 5d3f 8e12 063f 74a1 303f
0.4926541 0.6759156 1.5384185 0.69426537 0.92695117 1.2206995 0.996487 0.7561533
0.42765516 0.8628196 0.57100314 1.1131389 0.50659555 0.6612014 0.66805106 0.45687678
0.7943284 0.619933 1.1746145 0.57017803 0.5182433 0.98545814 0.6088028 0.4927504
0.95069 0.8275926 0.45207146 0.6240896 0.8196757 1.4250873 0.87419045 0.8694883
0.4252473 0.584931 0.9242425 1.3849584 0.67978483 0.8840267 0.85254145 0.5748414
0.6965421 1.1686465 0.63671786 0.6894798 0.5098367 0.61268145 1.5437084 0.7244252
0.4638747 0.52522284 0.47970986 0.31032684 1.317184 0.68760324 0.8477785 0.9013524
0.73874587 0.72643095 0.7838443 1.2593108 0.63606375 0.8635753 0.5237206 0.6899636

pose_encoder.net.2.1.bias f4 [64]
00000000: f785 f13e 6f33 983e d526 153f 0f6e 2dbf
00000010: 65dd 003f be0b e6be ebee 8cbf a2ee 89be
00000020: 7255 613e a077 d33d 1886 913d 9a0e 92bf
00000030: 45eb 513e 647a 09bc e640 17bf 710b e7bd
00000040: 914e 683d 414b 7abe decd 93be 590b 56be
00000050: c1ca 27be 6610 463d d4b2 6fbd e01d adbe
00000060: f94e 94bf 4295 08be 9c90 3a3d 10e8 0d3e
00000070: dbc9 8dbc fe77 1f3e f7b0 26bf 177b 85bf
00000080: a397 7bbd 024a 62be 300f 32bf 99d3 3e3d
00000090: 929b 04bf ef5a c9be c31d 21bf cf24 f4be
000000a0: 95f7 0bbe e9ba 4abf ee48 a5be b4ff 84bf
000000b0: 0fcb 07bf 607b 2d3e fecd 983e 8982 893d
000000c0: d62f 9dbe ecb6 52be ce77 e0be 6cd7 09be
000000d0: e39a adbf b9e5 aabe 0f25 9cbf 0ed3 30bf
000000e0: 7b9f 88bf 59df 93bf db8c 99bf 15ca e8be
000000f0: 7066 0cbf dfc4 ab3d a749 71bd 0af2 81bf
0.4717252 0.2972674 0.5826238 -0.6774606 0.5033782 -0.44930834 -1.1010412 -0.26939875
0.22005251 0.10325551 0.071056545 -1.1410706 0.20499904 -0.008390997 -0.590834 -0.11281479
0.05671555 -0.2444277 -0.28868002 -0.20902766 -0.16385938 0.048355483 -0.058520153 -0.33811855
-1.15866 -0.13338187 0.045548066 0.13858056 -0.017308166 0.15573117 -0.65113777 -1.0428189
-0.06142391 -0.22098544 -0.69554424 0.046588514 -0.5179988 -0.3932719 -0.6293604 -0.47684333
-0.13668664 -0.7919145 -0.32282203 -1.0390534 -0.5304422 0.16941595 0.2984466 0.06714351
-0.30700558 -0.20577592 -0.43841404 -0.13461083 -1.3562893 -0.3337839 -1.2198809 -0.69072044
-1.067367 -1.1552535 -1.1996111 -0.45466676 -0.5484381 0.083871596 -0.05890813 -1.015199

pose_encoder.net.2.1.running_mean f4 [64]
00000000: 894b 5a3f b11c 643e 1b13 7840 5ea2 1ac0
00000010: 0ddc c240 5c4e 9dbf 063c 5cc0 dc5f 42c0
00000020: bea7 d53f c0e7 16be 5100 06c0 4cc4 fcc0
00000030: a2c9 22c0 f51e 433e 7f23 ebbf 9e06 ae3f
00000040: 5cd5 87bf 273a 1f40 646f 7cc0 1b91 c3bf
00000050: 2037 d9bf 0abd 9dc0 5ca1 6fbf d5a1 5cc0
00000060: 37f3 30c0 9991 69bf 60bb 3abf a6ce b0bf
00000070: 8077 bdbf 494a 5ec0 d00f 9ac0 a4b0 97c0
00000080: 13a3 903f 1724 e63f abbe 72c0 9dec e0bf
00000090: c773 97bf 2866 97c0 35f1 a6c0 4903 3bc0
000000a0: 59a6 1e40 5e33 9fc0 3cfb 7ac0 8575 c6c0
000000b0: aac8 c33e 0814 3ebe 3271 7f40 bd9b fa3e
000000c0: 4358 7e3f 54e9 f6be 94ff 23c0 ab2c 5140
000000d0: b7d1 f2bf 646f 6fc0 1ca7 86c0 def1 a6c0
000000e0: a399 d5c0 48fb 33c0 3e61 04c0 af75 8cc0
000000f0: ff4d cfbf a879 08c0 9d80 20c0 48f1 38c0
0.8527151 0.2227657 3.876166 -2.41616 6.0893617 -1.2289538 -3.4411635 -3.0371008
1.6691816 -0.14736843 -2.0937693 -7.898962 -2.5435567 0.19054778 -1.8370208 1.359577
-1.0611987 2.4879243 -3.9442987 -1.5278658 -1.6969948 -4.929326 -0.9360559 -3.4473774
-2.7648447 -0.9123779 -0.7294216 -1.3813064 -1.4802094 -3.473284 -4.81443 -4.7403126
1.1299766 1.7979764 -3.7928874 -1.7572209 -1.1832207 -4.7312202 -5.216944 -2.9220755
2.478903 -4.9750204 -3.9215841 -6.2018456 0.38239032 -0.18562329 3.991284 0.48946944
0.99353427 -0.4822489 -2.5624743 3.2683513 -1.897025 -3.7411737 -4.207899 -5.217025
-6.6750045 -2.812212 -2.0684352 -4.3893657 -1.6195678 -2.1324253 -2.50785 -2.8897266

pose_encoder.net.2.1.running_var f4 [64]
00000000: fa0a ce40 9d97 0941 fa6d 8742 61ac fe40
00000010: 2e5c 5f42 dcaa e841 eff7 7141 4497 d041
00000020: 658c d040 67fb 1d42 131e 3a41 34eb 0d42
00000030: 5d77 f140 dd15 3441 8f14 4241 618d c740
00000040: f99c 5041 fcdf e540 d29e ae41 6011 b440
00000050: 0b34 b840 98f3 9441 9e55 9941 8342 5c41
00000060: 1306 7041 b1a7 8541 ffc2 2941 ea69 9041
00000070: b374 e241 9707 f641 6a6a bf41 415a 4441
00000080: 1cc7 3b40 cccc 0641 a927 4141 5c2d 1f42
00000090: 6dd8 0141 d6ae 1d41 f3ed 2342 806b b840
000000a0: 7e80 6241 a6f4 2542 42f9 dd40 e3e8 2341
000000b0: 60d6 0a40 05eb 4241 3480 1c42 d4d8 4641
000000c0: b6ae 7040 3360 7241 e893 8940 feb7 6640
000000d0: 0b2e bb40 d240 7441 0e3a 2241 822a 7542
000000e0: f93e f740 3fb5 a940 d30e 0a41 7d58 1c42
000000f0: cd7b 0741 99c4 3e41 52fc 0241 9038 4e41
6.43884 8.599515 67.7148 7.9585423 55.84002 29.083427 15.123031 26.07386
6.517138 39.49551 11.632342 35.47969 7.5458207 11.255338 12.130019 6.236008
13.038323 7.183592 21.827549 5.627121 5.756353 18.618942 19.166805 13.766238
15.001483 16.70688 10.610106 18.051716 28.306982 30.753706 23.92696 12.272035
2.9340277 8.424999 12.072183 39.794296 8.115338 9.855185 40.982372 5.7631226
14.15637 41.488914 6.936677 10.244357 2.1693344 12.182378 39.1252 12.427937
3.7606635 15.148486 4.299305 3.60498 5.8493705 15.265825 10.1391735 61.29151
7.726437 5.303375 8.628619 39.086414 8.467725 11.922997 8.186602 12.888809

pose_encoder.net.3.weight f4 [32, 64, 3]
00000000: 0f3b 1a3e 0392 1d3e 4ea3 2a3e 4fb2 623e
00000010: 05ee 463d a9ad 20be 8c00 8abe 3dea ccbd
00000020: 2b3a 28be ab70 223e 782e 79bd 32d0 a63c
00000030: 237e 903e 45dc 953e bd20 243e 693d c5bd
00000040: d64a 95bd 0a11 4fbe 0265 51be 9085 14be
00000050: ec05 0dbe e40f ffbd 0134 1fbd 4056 0ebe
00000060: 41d5 adbe 41a7 0fbe c75d d6bd 9881 28bd
00000070: 4506 ae3d 6bb2 413c 314c 7fbc e428 ea3d
00000080: 50f7 d7bd b364 0b3f faff b43e 088f bf3d
00000090: 840a cd3e 9d35 d63d 95f0 993e 449f 38be
000000a0: 99cf 1d3e e112 2d3e 9c7f d3be c345 1bbe
000000b0: 32a0 81be ec47 67be 8a0e ebbc 4783 38be
000000c0: 8a49 56be a071 83bd 9d6f 28be e120 f63d
000000d0: 2e0e 643d 3b2f 85bd 7a91 5abe 331c 233d
000000e0: 6cf1 3a3e 712f bbbe 9663 7cbd d485 03bd
000000f0: 7157 cd3e 41d9 d83d 144d 713e 0597 00bd
00000100: 25d9 8ebd fff5 e03d dff0 713d 0fc6 b2bd
00000110: aadd 963d d744 c23e ad87 10be 981c fcba
00000120: 47df 22be 7fae fcbd e281 a93d b14f b1be
00000130: 5664 4bbe 6875 6ebd 16d3 f53d 0d65 383e
00000140: c206 043e f348 183e 51dc 8a3d 533c 443e
00000150: 0200 ea3c dd7e ef3d 908b 113d 868f 86be
00000160: ac3f 9ebd 8d77 06be d855 ebbd 87d2 87bd
00000170: 2a39 6cbe bef3 b83e ffdd 8f3e cef5 c23d
00000180: 2c0e af3e 101c a93d 7464 573c fa73 41be
00000190: 50c8 bbbc c0d2 6bbd ae58 8a3e 6a10 8dbd
000001a0: 7ca7 203e 0f7e e33b 6b59 4d3e 5e27 df3d
000001b0: 8dfc e5be 76bc d93c 5cd7 36bd 2cc7 ebbd
000001c0: c952 90bd 1f72 1dbe 0d82 ea3e 2d0f 8b3d
000001d0: aa18 553e bf0a 8fbe 4246 47be aa5b 23be
000001e0: b225 f63c 1251 0dbe 0c06 4cbe b15a 85bd
000001f0: fb57 04be 3c44 45ba 35e3 cf3d d30e f93d
00000200: b28e 003e 022a f3be 09b8 8abe d5da 563d
00000210: 08a7 843e b064 9d3d 7e20 4d3e bdc7 9c3e
00000220: 5a81 89be 685a 02be e2a9 8a3e 6e1a 1f3e
00000230: 93a0 123e fe17 38be 919a 94bc 4476 d13d
00000240: ee5c 20be c5ae b03d 5c1c 613d 63aa 9e3e
00000250: 0b7e b9bd 4882 0e3e 2f5c 053e 562c 473e
00000260: d80c a53d 1c86 f939 0c22 c63d ddcc ee3c
00000270: f4a8 b2bc b65d 27be 8771 31be 352e 31be
00000280: 8f07 5dbd b62d 8abe 596d bd3c 1b8f 863d
00000290: f1ca ddbc 7c9d e2bd 1b62 efbc 152f 103e
000002a0: d55e f43d 31c6 e1bd f739 cdbd 8d31 9f3d
000002b0: 918a 163e f78d 303e c640 9dbd 9873 10bb
000002c0: d85c 3a3e dd68 40bd 6093 ae3d ed97 dabd
000002d0: 3812 d4bd ddb8 603d e503 46bc e81b 87bd
000002e0: 76f7 593d c630 11bd 876f 37be 6d97 023e
000002f0: 1b04 9bbc c81b 55be f541 2bbe 4a12 8dbe
00000300: 93fc 1f3d 5ccf 2e3d b02e 293d 40e4 e03c
00000310: 38d2 433d c9e4 143d 4818 853d 32f0 633d
00000320: 3795 9e3b 9e91 363e e9a0 3a3e 6ebc 4a3e
00000330: c00c 1e3b 7328 04bd 5200 a6bd b30d 263e
00000340: e2bf 6d3d 930b 3a3d f8d9 7fbe a126 95be
00000350: f1ba abbe a72c b53c 5c32 673d 104c 103c
00000360: a7f4 b3bd 0ba8 53bd b8f5 b53c 004d 523d
00000370: 6a93 39b9 5f3b af3c af11 73be f983 b5bd
00000380: 72de 49be c171 aabc 68c4 e3bd 461b bebd
00000390: 6f8e f3bc 300b dbbd a224 da3b fed4 d3bd
000003a0: bbd2 06be b165 9fbd 0614 2fbd fa99 94bc
000003b0: 6419 5cbd 629e 853d 51db 6b3b e603 ea3d
000003c0: ff6c 6f3d 3895 2f3e fc44 ef3d 36ec 353d
000003d0: 28fb 273d 6651 673d 2390 f2bd d101 c2bc
000003e0: 842a c6bc 06e8 0bbe 8694 dcbd 4774 79bd
000003f0: b6ae 323c ebf8 2bbc 4c43 51bd cbb3 ba3e
0.15061592 0.1538773 0.16663858 0.22138332 0.048566837 -0.15691246 -0.26953542 -0.10005615
-0.1642844 0.15863292 -0.06083533 0.020362947 0.28221235 0.29269615 0.16028114 -0.09630854
-0.072896644 -0.20221344 -0.20448688 -0.14504075 -0.1377179 -0.12454203 -0.038867954 -0.1390009
-0.33951762 -0.14028646 -0.10467105 -0.041139215 0.084972896 0.011822323 -0.01558213 0.114335805
-0.10545218 0.5445053 0.35351545 0.09353453 0.40047085 0.10459445 0.30066362 -0.18029505
0.15411223 0.16901733 -0.41308296 -0.1516333 -0.25317532 -0.2258603 -0.028693456 -0.18018828
-0.2092649 -0.064181566 -0.16448827 0.1201799 0.055677585 -0.06503149 -0.21344557 0.039821815
0.18256158 -0.36559632 -0.06161841 -0.03211005 0.40105775 0.10588313 0.23564559 -0.031394023
-0.06975011 0.1098442 0.059067603 -0.08729183 0.07366498 0.37943146 -0.14114256 -0.0019234596
-0.15905486 -0.1233797 0.08276726 -0.34631112 -0.19862494 -0.058217436 0.12003152 0.18007298
0.12893203 0.14871578 0.06780303 0.19163637 0.028564457 0.11694119 0.035533488 -0.26281375
-0.07726988 -0.13131543 -0.11490983 -0.06631952 -0.23068681 0.3612346 0.28099057 0.0951954
0.341905 0.082573056 0.0131465085 -0.18891898 -0.022922665 -0.057574034 0.27020782 -0.06887896
0.1568889 0.0069425176 0.20053641 0.108961806 -0.44919243 0.026579123 -0.044638976 -0.115125984
-0.0704704 -0.15375565 0.45802346 0.06790004 0.2081019 -0.27937886 -0.19460395 -0.15952936
0.030047271 -0.13800457 -0.19924182 -0.06511439 -0.12924187 -0.00075251213 0.10150758 0.121610306
0.12554434 -0.47492987 -0.27093533 0.05245479 0.25908685 0.0768522 0.20031926 0.30621138
-0.268565 -0.127298 0.27082735 0.15537426 0.14319067 -0.17977902 -0.01814011 0.102276355
-0.1566045 0.08627085 0.054958686 0.3098937 -0.09057244 0.13916886 0.13023447 0.19450507
0.080590904 0.000475929 0.09674463 0.02915042 -0.021809079 -0.16344342 -0.17328463 -0.17302783
-0.053962287 -0.26988 0.02312343 0.06570264 -0.027074309 -0.11065194 -0.029221585 0.1408046
0.1193215 -0.1102413 -0.100208215 0.07773123 0.14701296 0.17241655 -0.0767837 -0.0022041555
0.1819948 -0.046975005 0.08524203 -0.10673509 -0.103550375 0.0548638 -0.0120858895 -0.065971196
0.053214513 -0.035446905 -0.17913638 0.12753077 -0.018922856 -0.20811379 -0.1672438 -0.27553016
0.039059233 0.042678222 0.04130429 0.027452588 0.047807902 0.036351 0.06498772 0.05564899
0.004839565 0.17828986 0.18225445 0.19798443 0.0024116486 -0.032265138 -0.0810553 0.16216163
0.05804432 0.045421194 -0.24985492 -0.29131034 -0.33541062 0.022116018 0.05644451 0.008807197
-0.08786898 -0.05167393 0.022211894 0.051342964 -0.00017697891 0.021390615 -0.23737215 -0.088630624
-0.19713762 -0.020806195 -0.11121446 -0.09282546 -0.029731004 -0.10695493 0.006657199 -0.103433594
-0.13166325 -0.07783068 -0.042743705 -0.018139828 -0.053735152 0.0652435 0.0035988877 0.11426525
0.058453556 0.17146766 0.116830796 0.04441472 0.041011006 0.056474112 -0.11843898 -0.023682507
-0.024190195 -0.13662729 -0.10770516 -0.060901906 0.010905912 -0.010496358 -0.05108957 0.36465296

pose_encoder.net.3.bias f4 [32]
00000000: d887 313d d94c 663d cdee 003c a6dd bd3c
00000010: 698c 863d e8bc 14be 7f59 0dbe 7c52 a13d
00000020: deb1 60bd 2cde 17bd 87aa bfbd 5b25 ce3d
00000030: d1fe 3abb 769e adbd 8493 78bd 905c 18bc
00000040: 9c10 923c 3d64 bb3d 78b3 f53c f467 a63d
00000050: 3885 a1bb 55e0 113e efbb a83c 9a5e 343e
00000060: a421 433d 6664 44bd 6a0e d93c 9cbe 193d
00000070: 6edf ec3c 8600 e43d d32d f4bc 088e 8b3d
0.04334244 0.05622563 0.007869435 0.02317698 0.0656975 -0.14525187 -0.13803671 0.07877061
-0.054857127 -0.037077114 -0.093586974 0.10065719 -0.002853323 -0.0847749 -0.060687557 -0.009299412
0.017830186 0.09149978 0.029992804 0.08125296 -0.004929211 0.14245732 0.020597426 0.17614213
0.047639504 -0.04794731 0.026496131 0.037535295 0.028915133 0.11132912 -0.029807007 0.068142
