output/train_h36m_gesture_autoencoder/2D_retrain_h36m_gesture_autoencoder/new_2D_gesture_autoencoder_checkpoint_best.bin (torch, 790187 bytes, 62 tensors)

pose_encoder.net.0.0.weight f4 [32, 18, 3]
000000 23 9b 09 3e 7f 26 d1 3d 59 93 5b 3e ba 70 02 3e
       0.13438086 0.10212421 0.21442927 0.12738314
000010 e6 4d 23 3e f5 9e 8a 3d cb dc f3 3d f9 c6 9b bd
       0.15947685 0.067686 0.11907347 -0.076063104
000020 f1 7c e4 3d 89 90 92 3e 42 bd 80 3e 76 ea 34 3e
       0.11156643 0.28625897 0.25144392 0.17667565
000030 d4 78 a2 3b c6 fe d9 bc 47 57 1b 3d 3c 28 04 bd
       0.0049582515 -0.026610743 0.03792503 -0.032264933
000040 ca 6d f5 3d f7 e5 c3 bc 40 74 fd bd e6 07 ec bc
       0.11983831 -0.023913367 -0.123756886 -0.02881236
000050 62 e1 2c bd 08 63 99 be 7f 9a a1 be c1 76 96 be
       -0.04220713 -0.29958367 -0.31563184 -0.29387477
000060 a7 89 be bc 6d d4 fb bd 36 6f 27 bd 1b f3 71 3e
       -0.023258997 -0.122963764 -0.040877543 0.23627894
000070 91 da b0 3c 89 e8 65 3e b9 4d a3 3e 38 a6 e9 3d
       0.021588596 0.22451986 0.31895235 0.11408657
000080 19 b0 7a 3e 92 12 0d 3f c1 6d bf 3e b1 da f3 3e
       0.24481238 0.5510646 0.37388423 0.47627786
000090 e4 aa 07 be 00 d4 bc 3d e3 8a 96 bd be c9 96 3d
       -0.13248783 0.09220123 -0.07350709 0.07362698
0000a0 f0 73 4b 3e d7 0a 8c 3d 87 38 42 be fc 30 fa bd
       0.19868445 0.06838005 -0.18966876 -0.12216374
0000b0 69 14 30 be d9 9b 3d bd fa fe 83 3d ea ba 84 bc
       -0.17195286 -0.046291206 0.06445117 -0.016202409
0000c0 9a c0 a6 bc 8c ed c4 3d 0d 03 94 bd 3d b0 36 be
       -0.020355511 0.09615621 -0.072271444 -0.17840667
0000d0 c4 09 69 be f3 2b 7b be 0e 3c a5 bd d7 ef 11 be
       -0.22757632 -0.24528484 -0.08068095 -0.14251648
0000e0 fa d4 c9 bd 67 9c bd bc dd e7 8b be 48 97 db bd
       -0.09855075 -0.023145868 -0.27325335 -0.10722214
0000f0 92 e9 f8 bc c6 c1 ee 3d f7 56 20 bc f3 1a ed bc
       -0.030384813 0.11658053 -0.009786359 -0.028943514
000100 5e 00 16 bd 0c 6c c9 3d 0b ea 5e 3e a9 f0 df 3d
       -0.036621444 0.098350614 0.21768968 0.10934574
000110 c9 9d 38 bc 76 6b bb bd 75 fa 50 bd 37 60 07 be
       -0.011268088 -0.09151356 -0.051020104 -0.13220297
000120 08 bf 85 3d 9f 97 09 be 43 1d af bd 4f 7b 30 be
       0.06530577 -0.13436745 -0.08550503 -0.17234538
000130 b6 f8 5b 3d 00 7a 85 bd 29 de 0e bd c2 c8 0c bc
       0.053703986 -0.0651741 -0.034879837 -0.008592786
000140 1d 0f ac 3d 1f 27 7e 3e 7e 45 9a 3e 5c e3 a2 3e
       0.0840132 0.24819611 0.30131143 0.31814086
000150 0b 35 e0 3c 9c f4 a6 bc 5f 8a 4e bc 23 1b 7a bf
       0.027369043 -0.02038031 -0.012606232 -0.9769766
000160 97 37 44 bf 24 a8 f8 be 6c 9d 38 3e d4 bd 8c 3e
       -0.76647323 -0.4856578 0.18028802 0.27488577
000170 64 55 83 3e bf 1a ef 3c 85 be b1 bd 56 99 32 3d
       0.25651085 0.029187558 -0.08678917 0.043603264
000180 e6 65 44 3e 47 eb 85 3e dc 51 55 3c b0 e7 fa 3d
       0.19179496 0.26156065 0.013020005 0.12251222
000190 d5 c4 2a 3e ca 4a 59 3e fe 99 e9 3d c4 e5 c3 bc
       0.16676648 0.21219936 0.11406325 -0.023913272
0001a0 78 54 79 bd f8 2b ee bd fb 4c 29 bd b6 ac cc 3d
       -0.06087157 -0.1162948 -0.04133318 0.099938795
0001b0 da 00 54 bd 6c f2 be 3c 3c 8d 66 3d 4c 56 03 3d
       -0.051758625 0.023308955 0.056287035 0.03206472
0001c0 be 3e 0b 3d 83 45 54 3d a8 26 80 3d a3 5b 9c bc
       0.033995382 0.051824104 0.06257373 -0.019086665
0001d0 8a 4f 59 3d 00 75 3a 3c 9b 02 61 3d c0 2f 1b bc
       0.05305437 0.011380434 0.054934125 -0.009471834
0001e0 a0 54 31 3d 54 2d 23 bd 38 2d 85 3d 61 6c a9 3d
       0.043293595 -0.03983815 0.065027654 0.08272625
0001f0 a4 7c 9e bc 33 0e a1 3d 12 16 54 bc 9d eb 3e be
       -0.019346543 0.078640364 -0.012944715 -0.18644567
000200 73 79 9d bd 3b 53 d1 bd 49 37 b7 bd 5f ff 53 bc
       -0.0768918 -0.10220953 -0.08946092 -0.012939303
000210 a3 68 87 3d 54 2c df 3d cf ad 57 3d 2c 93 17 be
       0.06611755 0.10897127 0.05265599 -0.14802235
000220 f8 b3 28 be e5 4e da bd 67 0a 91 3d f3 5c ca 3c
       -0.16474903 -0.10659579 0.07082062 0.024702525
000230 7f a2 80 3d 94 cf 79 be 44 29 1f be ee fd 60 be
       0.06280994 -0.24395591 -0.15543085 -0.21971866
000240 69 32 b6 3d 3e 41 19 3e 50 0a 07 bd 2c 5d d5 bd
       0.08896334 0.14966294 -0.03296882 -0.10418162
000250 26 47 2f bd 94 0d 3f bd de 07 8a be a5 99 96 be
       -0.04279246 -0.04664381 -0.26959127 -0.29414096
000260 bb 79 70 be 28 d2 50 bd 74 7f 0f be 8a 73 c0 bd
       -0.23483936 -0.05098167 -0.14013463 -0.09397037
000270 80 ec 3b bd d4 58 af bd 0c a4 20 3d 8e f2 42 bf
       -0.04587984 -0.085618645 0.039218947 -0.7615136
000280 c8 7f fe be 5b b9 3d bf 0a be 02 be 7a b1 1b bd
       -0.49706864 -0.74110955 -0.12767807 -0.03801105
000290 10 0f 87 3c 96 fd 08 be 84 2a 1e be c5 6b 52 bd
       0.016486675 -0.13377985 -0.15445906 -0.05137231
0002a0 d3 f3 22 be 4b a7 3f be d2 fb de bd 8a 35 3a 3f
       -0.15913324 -0.18716161 -0.10887875 0.72737944
0002b0 bc 38 d5 3e dc 8c 1d 3f 40 3f a3 bd c3 11 06 be
       0.41644847 0.6154306 -0.07971048 -0.13092713
0002c0 ae f9 f4 bd 67 10 7e be aa 9b 03 be 78 fd 5b be
       -0.11961685 -0.24810944 -0.1285235 -0.2148341
0002d0 36 ca 4d be d7 ae 85 be b1 56 7f be af 42 bc be
       -0.20096669 -0.26109955 -0.24935414 -0.36769626
0002e0 79 cd 78 be 2b 4a 53 be ab 7c e2 bb 4d 60 cc 3d
       -0.24297132 -0.20633762 -0.0069118342 0.099793054
0002f0 5b 85 d7 bc 7b 60 7f be 31 90 62 bd 46 e4 46 3b
       -0.026308706 -0.24939148 -0.055313293 0.0030348464
000300 42 69 53 3e e3 74 40 3e 54 96 86 3e 41 59 97 3d
       0.20645621 0.18794589 0.26286566 0.07390071
000310 03 7a d8 3d 91 94 42 3e 33 ae ac 3e a1 1d 69 3e
       0.10570147 0.19001986 0.33726653 0.22765209
000320 98 af 6f 3e 2c cc 1a be 79 89 7f bc 52 8e 39 be
       0.23406827 -0.15116948 -0.015596741 -0.18120697
000330 13 96 64 be 34 70 8b be ff d6 e3 be 69 68 58 3e
       -0.22322874 -0.27234042 -0.44499967 0.2113358
000340 1d 82 75 3e e3 ed 79 3e cb b0 99 3d 46 33 3e 3e
       0.23975416 0.24407153 0.07504424 0.18574247
000350 4c 4c 25 3d f5 d3 05 be 7d 07 a6 3d 47 7a 77 bd
       0.040355965 -0.13069136 0.08106897 -0.060419347
000360 ab 9f 87 3d f1 be 24 be 0c 18 ba bc 01 fb f9 bb
       0.06622251 -0.16088463 -0.022716545 -0.007628799
000370 6e 71 4a 3d 73 60 87 bd 21 d6 24 3d 14 02 c7 3c
       0.04942458 -0.06610193 0.04024327 0.024292983
000380 f8 cc d2 3c 51 d8 94 be ae f2 8b be 22 c6 9d be
       0.025732502 -0.29071286 -0.27333587 -0.30815226
000390 53 7c 9e 3d cd 13 e4 3d 7a 58 89 3d 14 5c e3 be
       0.07738557 0.11136589 0.06706329 -0.44406188
0003a0 8d f0 08 be de 69 15 be fe f0 30 bf 62 78 b0 be
       -0.13373013 -0.14591166 -0.69117725 -0.34466845
0003b0 a8 30 fd be 39 e1 60 bf 88 7b 3e bf 41 85 54 bf
       -0.49451184 -0.8784366 -0.74407244 -0.8301583
0003c0 3e e2 e1 3d c7 ad 90 3e 6b 15 ef 3d 89 9a aa bd
       0.110294804 0.28257582 0.11674007 -0.083302565
0003d0 58 29 37 3e aa 03 9b 3d e4 08 03 3e e0 86 a5 3d
       0.17886865 0.07569058 0.1279636 0.08082366
0003e0 49 4f f8 bc b4 31 f2 3d bf db 1a 3e 05 a9 cc bd
       -0.030311244 0.11825886 0.15122889 -0.099931754
0003f0 c1 26 6f 3e 45 9e d2 3e 7b b1 d6 3e b4 70 05 bf
       0.23354627 0.41136375 0.41932282 -0.52125096

pose_encoder.net.0.0.bias f4 [32]
000000 c0 df 35 be 14 70 88 3c ee d4 93 3d bd 93 71 3e
       -0.17761135 0.016655006 0.072183475 0.23591514
000010 ed 14 a5 3d 5f 84 5c 3d c8 d0 ee 3d 1d a7 2f bd
       0.08060632 0.053837176 0.116609156 -0.04288398
000020 c8 97 06 3e e3 27 e6 bb 38 7f 74 3d 3d 7a 6f bd
       0.13143837 -0.007023798 0.059691638 -0.058466185
000030 94 ab e2 3d 89 d5 99 bd da 07 43 be 0b ee a7 3d
       0.11067882 -0.07511432 -0.19045964 0.081997
000040 96 fb c0 3d cd 94 df bd ea a1 1c 3e 49 b0 85 3d
       0.09422986 -0.10917053 0.1529614 0.06527764
000050 67 b9 07 bd 3f 23 dc 3d 10 6c dd 3d 48 45 bc 3d
       -0.033135798 0.1074891 0.10811627 0.09192902
000060 d2 8b c0 bd d0 d5 ad 3e b5 e2 d2 3d 6e f8 ab bc
       -0.094016686 0.33952188 0.10297147 -0.020992484
000070 88 39 08 be 39 8b fe 3d d1 41 55 be 9a 29 2a bd
       -0.13303196 0.12428898 -0.20825888 -0.04154358

pose_encoder.net.0.1.weight f4 [32]
000000 7a 61 b4 3f a2 60 11 3f 4c d7 87 3f f4 95 4f 3f
       1.4092247 0.56788075 1.0612578 0.81088185
000010 d6 d7 09 3f 93 bd 4d 3f 0c ec 85 3f 15 35 88 3f
       0.53844965 0.8036739 1.0462661 1.0641199
000020 a8 36 46 3f aa 1b 61 3f a5 56 29 3f ac dc 1c 3f
       0.7742715 0.87932837 0.66147834 0.6127422
000030 4b e4 82 3f 85 de 34 3f 09 d1 49 3f 5c 90 81 3f
       1.022592 0.7065204 0.7883459 1.012218
000040 95 e6 83 3f d0 54 5a 3f 57 fd 38 3f be 13 55 3f
       1.0304743 0.85285664 0.72261566 0.8323325
000050 d3 c8 a4 3f c3 c7 60 3f c6 9e 90 3f 68 00 32 3f
       1.2873787 0.8780481 1.1298454 0.6953187
000060 7f f7 3c 3f d8 a2 54 3f 56 78 f8 3e 04 29 09 3f
       0.7381515 0.8306098 0.4852931 0.5357821
000070 43 82 69 3f b2 55 b9 3f e4 12 2d 3f 6d c2 e4 3e
       0.9121439 1.4479277 0.6760695 0.44679585

pose_encoder.net.0.1.bias f4 [32]
000000 67 ad 14 3f 8b bc c6 3e 48 d7 a1 3e 2d 81 ff 3e
       0.5807709 0.38815722 0.3160956 0.4990324
000010 7c 28 1e 3f c0 2a 5a 3e df e4 0d be 0f 0c af bf
       0.61780524 0.2130537 -0.13856839 -1.3675555
000020 5a 23 bb 3e 2c 06 cf 3d 16 79 6b 3e 6f 75 7a 3d
       0.3655041 0.10108599 0.2299541 0.06114715
000030 2c 40 7e 3e c1 9e bb 3e e6 3f 84 3d f3 3b 63 3e
       0.24829167 0.36644557 0.064575 0.22190838
000040 98 40 4d be 7a 04 66 3e d5 1d bc 3e bd 12 c3 3e
       -0.20044172 0.22462645 0.3674151 0.38100234
000050 8b df 4f 3d d1 63 3d 3e 7a 14 8c bf f5 74 8a 3e
       0.050750297 0.18495108 -1.0943749 0.27042356
000060 b5 9c 32 bd 97 b2 98 3e d5 60 5b 3f c2 de a6 3e
       -0.04360648 0.29823753 0.8569463 0.32591826
000070 e6 48 04 bf 56 fd 48 bf 70 96 dc 3b 2f 55 30 3e
       -0.51673734 -0.7851156 0.0067318007 0.17219995

pose_encoder.net.0.1.running_mean f4 [32]
000000 38 9f a1 3e ce 07 e0 be 29 1b 9a 3e 07 41 56 3f
       0.31566787 -0.43755955 0.30098847 0.83692974
000010 ad 07 c2 be cf ba bd 3e df 5d e8 bc 37 43 3c 3e
       -0.3789648 0.37056586 -0.028365074 0.18385015
000020 49 a4 29 be 4b 6c 90 be aa 33 ca 3e e3 5a ee 3d
       -0.16566576 -0.2820762 0.39492542 0.11638429
000030 c0 ff 9f 3e de ce 23 bf d1 90 15 bf 4b b1 15 3f
       0.3124981 -0.6398753 -0.584241 0.5847365
000040 d2 f8 f6 3e fa ce d8 bc e4 d5 f7 3d 48 a5 00 bf
       0.4823671 -0.026465882 0.12101343 -0.502522
000050 1c d4 b3 be 18 7a a1 be 0b 9e c2 bb db c7 88 bd
       -0.35122764 -0.31538463 -0.0059392503 -0.066787444
000060 2b 6f e6 be 7d 07 23 3f 63 dc 80 3e ee 2e 12 3e
       -0.4500669 0.636833 0.25168142 0.14275715
000070 12 d7 bb bd f1 e5 b8 3e 53 ba 27 bf 8e 3a 7c bd
       -0.09171881 0.3611293 -0.65518683 -0.06157928

pose_encoder.net.0.1.running_var f4 [32]
000000 4a c3 63 3f 89 12 ca 3f ea 2c 15 40 9e 2f 2a 3f
       0.8896986 1.5786906 2.3308663 0.6647891
000010 18 54 b4 3e 63 32 4b 3f 74 3a ff 3f e6 9b 94 3f
       0.35220408 0.7937376 1.9939713 1.1610076
000020 c5 a0 9f 3f 30 74 fa 3f fb c4 4c 3f 2b a7 a0 3f
       1.2470938 1.9566708 0.7998807 1.2551016
000030 a0 5f 84 3f 78 65 21 3f 2b 69 82 3f 0c f2 20 3f
       1.0341682 0.63045454 1.0188345 0.62869334
000040 0f 8f 81 3f be 59 91 3f b8 97 27 3f c4 42 43 3f
       1.0121783 1.1355512 0.6546588 0.7627375
000050 75 5a 44 3f 41 66 81 3f 37 47 47 40 12 3e 21 3f
       0.76700526 1.010933 3.1137216 0.62985337
000060 98 3a 66 3f 77 aa c3 3f e4 5e 4d 3f f8 55 32 3f
       0.89933157 1.5286397 0.80222917 0.6966243
000070 2d 68 5e 3f 8a ce d3 3f 18 b3 7b 3f 10 2f f4 3e
       0.8687771 1.6547406 0.9832015 0.47692156

pose_encoder.net.1.0.weight f4 [64, 32, 3]
000000 c3 44 0b 3e ce eb cf 3d b8 cb 27 be fa 25 2c be
       0.1360045 0.10152398 -0.16386306 -0.16811362
000010 85 b9 2f be 7c a4 74 be c6 7c bf 3d b7 68 06 3d
       -0.17160614 -0.23890871 0.093499705 0.032814708
000020 49 ab 33 3c 33 62 17 3e 5e b5 0f 3e d1 5d e9 3d
       0.0109661305 0.14783554 0.1403403 0.11394847
000030 e9 79 60 be 58 98 3d be ff b5 84 bb 4a ef 53 be
       -0.21921505 -0.18515146 -0.004050016 -0.2069675
000040 b6 ec cd bd 39 22 24 be 40 20 52 be a8 dc 9a bd
       -0.10054915 -0.1602868 -0.20520115 -0.07561618
000050 c3 b4 2c be 69 9e bd be 59 49 af be ce 36 e1 be
       -0.1686583 -0.3703492 -0.34235647 -0.43987125
000060 ab 1d 98 be f1 fe 44 be 64 51 5e be 26 3b cd 3c
       -0.29710135 -0.19237877 -0.21710736 0.025052618
000070 19 74 e5 3d 41 1a 2d bc 63 d7 71 3e b8 f7 40 3e
       0.112037845 -0.010565341 0.2361732 0.18844497
000080 5a 8d 46 3e b2 c9 73 bc 08 ca 3c be 9d df e0 bd
       0.19389859 -0.014879631 -0.18436444 -0.10980151
000090 7c 97 9d 3c 1c 1b c6 bd 63 08 fa bd 6d ef 9e 3d
       0.019237272 -0.096731395 -0.12208631 0.077605106
0000a0 12 5c ba 3a 16 17 80 3d 35 31 8b 3d c9 18 aa 3d
       0.0014218113 0.06254403 0.06796495 0.08305509
0000b0 0a 35 5e 3e 65 32 70 be ab 5b bb be ba 00 60 be
       0.2169992 -0.23456724 -0.36593375 -0.21875277
0000c0 24 ea 57 be fc e7 4d be 3a ca 62 be bd 3f db 3d
       -0.21085411 -0.20108026 -0.22147456 0.107055165
0000d0 ef 4f b4 bc 55 59 9e bd 74 54 67 be ca 3f 53 be
       -0.022010772 -0.077318825 -0.2259081 -0.20629802
0000e0 ab 52 ca be a9 00 b3 bd 93 b8 15 be 15 d4 49 be
       -0.39516196 -0.0874036 -0.1462119 -0.19709809
0000f0 b6 e7 0b bd cd 10 45 3d d8 f5 a8 bc 94 02 93 3e
       -0.034156524 0.048111726 -0.02062504 0.28712904
000100 d9 bd 73 3e 8c 53 22 3e ec 19 12 bf 77 e5 fa be
       0.2380289 0.15852183 -0.57070804 -0.49003193
000110 c4 f1 f2 be 06 a0 3e bd 8d 3a 1b bd 6c 66 9e bc
       -0.47450078 -0.04653933 -0.037897635 -0.019335948
000120 4a 22 ab 3e c0 40 90 3e 3a 0d 2c 3e 7f 52 60 3e
       0.33424598 0.281744 0.1680192 0.2190647
000130 bc 86 c2 3e a9 c3 a2 3e c4 9c 85 be 3f 39 8e be
       0.3799342 0.31789902 -0.26096165 -0.2777805
000140 4e 41 a2 be fd d7 c0 3d 4a c8 cf bd ae 8c 17 bd
       -0.3169045 0.094161965 -0.10145624 -0.036999397
000150 ab f6 76 3e 5a 26 02 3e 7c 04 b5 3d e8 27 1e be
       0.24117534 0.12709942 0.08838746 -0.1544491
000160 8a 77 50 be 95 c7 2c be c1 27 9c be c8 17 d6 be
       -0.203581 -0.1687301 -0.3049908 -0.4181502
000170 34 c0 01 bf ba 78 6f bd 18 aa e7 bd 16 88 03 be
       -0.50683904 -0.058464743 -0.1131174 -0.12844881
000180 ab 4b c8 3d 37 e5 a9 3d f3 ee 89 3e 2e 7f e6 3d
       0.097800575 0.082956724 0.26940116 0.11254726
000190 18 b1 b4 3c b5 38 dc 3c 88 d4 3b 3f 9a 92 f4 3e
       0.022057101 0.026882509 0.7337117 0.47768098
0001a0 ea 54 15 3f e3 20 87 3d 4a fc 8c bd b0 21 06 bc
       0.58332694 0.065980695 -0.06884058 -0.008186743
0001b0 6d 6a 7f 3d ea 18 01 be b7 d1 00 3d b6 ae 5e bd
       0.062357355 -0.1260716 0.03145 -0.054365836
0001c0 da a9 6b be 6b ac 2c be b8 fc a7 3c 82 d1 eb 3d
       -0.23014012 -0.16862647 0.020506248 0.1151457
0001d0 22 18 24 3e 43 f8 3b be 60 0f 7e be d2 cc 98 bd
       0.16024831 -0.18356423 -0.24810553 -0.074609414
0001e0 6d ea 1f be 5a 45 d5 be 5b 67 61 be eb 51 3b be
       -0.1561677 -0.41654474 -0.22012083 -0.18292968
0001f0 00 35 90 bd 5f 04 64 bd 37 31 59 bb e6 69 14 be
       -0.07041359 -0.05566823 -0.0033140907 -0.14493522
000200 ed f2 54 3b 8d 33 9a bd 1e 68 27 bc 1e af 1d be
       0.0032493428 -0.07529364 -0.010217695 -0.15398833
000210 2f a1 8c bd 14 62 2f bd 0a 65 13 bd bc 8a b8 bd
       -0.06866681 -0.042818144 -0.03598503 -0.090108365
000220 26 69 d6 3d 30 61 74 bd af 0b 82 3d 56 2c 70 3d
       0.10469274 -0.059662998 0.06349885 0.058636032
000230 27 03 37 bd 93 ac ef 3c 04 83 ea bd 57 7b 12 3d
       -0.04468074 0.029257094 -0.114507705 0.035762157
000240 9f bb c3 bd 77 bf 0e 3d 81 e1 f2 bd 0d 5b 08 be
       -0.0955727 0.034850564 -0.11859418 -0.13315983
000250 9d 28 a3 bd 43 ef 0f bc 0f da d7 3d 06 95 a6 bd
       -0.07966731 -0.008785072 0.10539638 -0.08133893
000260 7f e1 48 3c d6 ac fa 3b b9 bb ba ba 93 2a 3a bb
       0.012260794 0.007649998 -0.001424662 -0.0028406724
000270 89 d5 11 be e9 61 c3 bd 72 57 c4 bd 8f b1 58 bd
       -0.14241613 -0.09540159 -0.09586991 -0.052903708
000280 36 67 35 3e 63 ce cc bc d9 bf a1 bf 0d 97 72 bf
       0.17715153 -0.025000757 -1.2636672 -0.94761735
000290 6f 69 9c bf 3f 7c 5b bd 55 7e 01 bd af 2b 72 bb
       -1.2219676 -0.053585287 -0.03161462 -0.0036952307
0002a0 24 f2 1b bd 9a b1 b0 3d 10 cd b1 3c 5e 57 6b bd
       -0.03807272 0.08627625 0.021704227 -0.057456367
0002b0 19 7b 94 bd c0 cc 0a be b3 71 aa bc c1 6f f1 3c
       -0.072500415 -0.13554668 -0.02080617 0.029472234
0002c0 67 f5 4a bc 03 09 e6 bd 63 a5 bd 3d 56 cd 37 3c
       -0.01238761 -0.112321876 0.09260061 0.0112183895
0002d0 b9 88 1c 3e 82 7f 37 3e 4b e3 15 3e 6b d2 e4 bd
       0.1528653 0.17919734 0.14637487 -0.111729465
0002e0 81 1f b2 bd 71 54 b8 bc f0 a3 c5 3d f3 08 f5 bd
       -0.08697415 -0.022501202 0.09650409 -0.119645976
0002f0 1e 51 76 3d 98 e7 9b 3d 78 e3 93 bd 3e d3 87 3d
       0.060135953 0.076125324 -0.072211206 0.06632088
000300 20 77 1f 3f 6c 74 ef 3e 60 9b 2c 3f 9e 2c 84 3e
       0.62291145 0.4676851 0.67424583 0.2581529
000310 c8 63 00 3e 87 2b 8d 3e db a1 62 3e 14 63 1e 3e
       0.12538064 0.2757227 0.22132055 0.15467483
000320 d2 03 55 3e a3 42 cc bd a6 92 bd bd 11 c3 e0 3d
       0.20802239 -0.099736474 -0.092564866 0.10974706
000330 75 38 a1 3c aa c1 1c 3e 9b 00 35 3e 73 92 53 be
       0.019680241 0.15308252 0.17676012 -0.20661335
000340 ca df cc bd 27 66 5b be 1c 8e 22 3e 8c fe 9c 3d
       -0.10003622 -0.21425687 0.15874523 0.076657385
000350 16 db c9 3d 33 14 6c 3e 65 cf 7d 3e 6b e9 ba 3e
       0.098562405 0.2305458 0.24786146 0.3650621
000360 24 c5 e2 bd 49 9e 18 be 54 d5 84 be 40 2a 50 be
       -0.11072758 -0.14904131 -0.25944006 -0.20328617
000370 e1 0e 68 be cc c3 3e be e0 06 8d 3d a0 65 1d bd
       -0.22661926 -0.18629378 0.06886077 -0.038426995
000380 be 1d e6 3d bf f8 fe 3a d2 c9 a1 bd 4c 58 93 3c
       0.112361416 0.0019452794 -0.07899822 0.01798644
000390 a0 4f ef be a4 b2 d3 be 8d 21 9f be 4a 7f dd 3d
       -0.46740437 -0.4134723 -0.31080285 0.10815294
0003a0 f3 9b 26 3e d9 a4 f8 3d dd 0c d9 3d 3f e3 5a 3d
       0.16270427 0.12140817 0.105981566 0.053439375
0003b0 b5 e3 9c 3d 46 25 10 be ed 60 cf bc 66 54 d6 bd
       0.07660619 -0.14076719 -0.025314773 -0.104653165
0003c0 29 7c 4e be e7 9b a3 bd 15 ab 3c be 67 7f 5b 3d
       -0.20164551 -0.079887204 -0.18424638 0.053588297
0003d0 88 db f3 3d 5a 92 06 3d 8b 54 5f 3e d3 37 4b 3e
       0.11907107 0.032854415 0.21809594 0.19845514
0003e0 72 11 3a 3e 7b 9f e7 3d 9a 59 c1 3d 17 6d 0a 3e
       0.18170717 0.11309715 0.09440918 0.13518177
0003f0 22 a7 ca be 53 6c d7 be 01 bf be be 03 a0 61 3e
       -0.39580637 -0.42074832 -0.372551 0.22033696

pose_encoder.net.1.0.bias f4 [64]
000000 f3 87 2e 3e ce 1a e9 3d 42 96 0f 3e 04 6d 99 3d
       0.17044048 0.11382066 0.14022163 0.07491496
000010 db b0 85 3e 09 d5 17 3c 7e c6 b9 3d 3c 73 13 3f
       0.26111493 0.0092671 0.090710625 0.5759771
000020 f6 c9 9c 3e a6 1f ec 3d be 61 50 3e 2d bd 93 3e
       0.30622834 0.11529474 0.20349786 0.28855267
000030 6c 12 5b 3e 56 df 99 3d db 5e 35 3e a3 c5 ce 3e
       0.21393746 0.07513301 0.17711966 0.4038516
000040 3c b8 6f 3d 46 5c bf bc d2 c7 46 3d 02 2f d4 3d
       0.05852531 -0.02335943 0.048530407 0.103605285
000050 9a bf 96 bd 91 a9 a4 3e 67 5d 3f 3e ad 25 85 3d
       -0.07360764 0.3216062 0.18687974 0.06501327
000060 7c 19 a7 3d 2e 6b ab 3d e8 9b 1f 3d 5f 5b 6d bd
       0.08159158 0.08370052 0.038967043 -0.057948466
000070 fd ef 43 3d a0 97 f7 3d 8e 50 43 3c 42 5e 0c 3d
       0.047836293 0.12089467 0.011921061 0.03426958
000080 d5 46 01 3e 97 24 4a 3e 9a f8 0f 3e 8b f5 93 3e
       0.12624677 0.1974052 0.14059678 0.28898272
000090 62 50 58 3e 7c da 2a 3e a7 73 ac 3e a7 cd f4 3d
       0.21124414 0.16684908 0.33681986 0.119532876
0000a0 8c 4d 8c 3e 4d d8 ee 3d b3 2f a1 bc 9b 01 4d be
       0.27402914 0.1166235 -0.019676065 -0.20020144
0000b0 89 f2 0f 3e bb c2 8c be 6a ec cb 3d a1 7d 9a 3c
       0.14057364 -0.27492318 0.09957202 0.018858733
0000c0 d7 08 80 3e 4e 83 03 3e d9 4f 88 bc 37 a7 83 bb
       0.25006744 0.12843058 -0.016639637 -0.0040177363
0000d0 38 5d 42 3e c2 d8 44 be e3 20 8d 3e 25 ac ab bc
       0.18980873 -0.19223312 0.27564153 -0.020956108
0000e0 49 09 a6 3d 0c 16 2d 3d 34 63 c5 3d aa 34 97 3d
       0.0810724 0.042257354 0.09638062 0.07383092
0000f0 49 4a 45 3e 97 59 ff 3c 04 00 89 3e 39 f6 bf 3e
       0.19266619 0.03117065 0.26757824 0.3749254

pose_encoder.net.1.1.weight f4 [64]
000000 27 00 de 3e 9c 2e 69 3f d1 d2 77 3f 33 ad 60 3f
       0.4335949 0.91086745 0.96806055 0.8776428
000010 86 8a c2 3e 46 cd 94 3f c6 98 01 3f a9 94 91 3f
       0.3799631 1.1625144 0.5062374 1.1373492
000020 91 0e 11 3f 7b 3e 1c 3f d7 07 6e 3f 65 56 af 3e
       0.5666285 0.6103284 0.9298071 0.342456
000030 d7 45 91 3f a7 db 40 3f ab 9e 65 3f 34 91 97 3f
       1.1349438 0.7533516 0.89695233 1.1841187
000040 63 df 8d 3f 96 3a 2d 3f 52 ee 48 3f 34 d6 80 3f
       1.1083797 0.6766752 0.7848865 1.006537
000050 20 81 73 3f ea 37 f9 3e 4f c1 19 3f 08 85 27 3f
       0.95118904 0.48675472 0.6006059 0.65437365
000060 84 9c 98 3f ad e5 79 3f db 25 94 3f a5 43 b7 3e
       1.1922765 0.9761608 1.1574053 0.35793796
000070 f2 2a 4c 3f 62 8f e7 3e 7a 3b c0 3e 3e f2 84 3f
       0.7975303 0.4522658 0.37545377 1.0386426
000080 f7 55 16 3f b3 6b 6f 3f 1a 7c 38 3f 9d 2c 37 3f
       0.5872492 0.9352371 0.72064364 0.7155245
000090 1a 3e ee 3e db ae c6 3e d0 9b d0 3e 82 43 a5 3f
       0.46531755 0.3880528 0.40743876 1.2911227
0000a0 0e 60 22 3f 5c e6 9c 3f a3 65 72 3f 68 eb bd 3e
       0.6342782 1.22578 0.94686335 0.37093663
0000b0 e1 c2 24 3f 9f fe 81 3f 0b bf 95 3f 06 bc 00 3f
       0.6435986 1.0155829 1.1698927 0.502869
0000c0 96 62 ba 3e 4c b9 c3 3f 1f 19 1e 3f af 33 b6 3f
       0.3640334 1.5290923 0.6175708 1.4234523
0000d0 d7 55 87 3f 1e 9a 3e 3f 67 5d bf 3e 3c 10 2c 3f
       1.0573071 0.74453914 0.37375948 0.6721227
0000e0 a1 c0 3a 3f 22 b2 f4 3f 0d 9a ea 3e 3f e5 4c 3f
       0.7295018 1.9116862 0.45820656 0.800373
0000f0 c6 45 0c 3f eb 7e 22 3f 16 33 70 3f 9e d5 85 3f
       0.54793966 0.6347491 0.9382795 1.0455816

pose_encoder.net.1.1.bias f4 [64]
000000 2f eb 07 be d1 85 98 bf 0c ba 86 bf 50 58 97 bf
       -0.13273309 -1.1915838 -1.0525527 -1.1823826
000010 f6 5e 3a bd ca 81 04 bf 58 40 ea 3e cb 9e 3b bf
       -0.045500718 -0.5176054 0.45752215 -0.73289174
000020 0f fe 3a bd 6a 76 a0 3e ed c0 7b be 81 ea 86 3e
       -0.045652445 0.31340343 -0.24585314 0.26350787
000030 fe 22 e2 be b0 ea 34 3e ea 4e fb be eb b4 16 bf
       -0.44167322 0.17667651 -0.49083644 -0.5886981
000040 35 3a 90 bf a2 62 55 bf db 82 e6 be 84 d0 65 bf
       -1.1267763 -0.83353627 -0.4502171 -0.89771295
000050 55 7c 0a bf 2b f2 a8 bc 59 16 0b 3f ba 4e 4d be
       -0.54095966 -0.020623287 0.54330975 -0.20049563
000060 e3 68 74 3d 39 63 c5 be 41 0f 0d bf ae f4 79 3e
       0.05967034 -0.38552263 -0.551014 0.24409744
000070 48 b6 6f bd e7 5d 67 3e e4 6f 01 3e 15 e1 32 3e
       -0.058523446 0.22594415 0.12640339 0.17468674
000080 7a 96 a2 be 89 4a 5d be 49 bc 8a 3e fb 9f e1 3d
       -0.3175543 -0.21610464 0.27096775 0.11016842
000090 ff 46 9e 3e 55 a6 0b 3f 1e 51 f4 3d 76 85 4c 3e
       0.3091354 0.5455068 0.119295344 0.19972786
0000a0 72 b5 11 bf dd 42 34 bf 18 8e 2d be bf 97 a6 3e
       -0.5691749 -0.70414525 -0.16948736 0.32537648
0000b0 a5 d9 ad be 79 01 e3 3e 2c 0b 1b bf 8a 41 00 3e
       -0.33955112 0.4433706 -0.6056392 0.12525001
0000c0 ee 72 28 3f 29 e5 06 bf 49 e7 55 be 90 a1 bf be
       0.6580037 -0.5269342 -0.2088901 -0.3742795
0000d0 1f 46 e6 be 80 d6 d5 3d 5f 86 4f 3b 10 fc 08 3e
       -0.44975373 0.10441303 0.0031665785 0.13377404
0000e0 25 9b 16 be e7 dc 51 bf 39 7c 22 3c 9b c0 79 be
       -0.1470762 -0.81977695 0.009917312 -0.2438988
0000f0 98 7c 9a 3d 7b fe 66 be 79 bf 93 bf 34 f8 54 be
       0.075432956 -0.22558014 -1.1542808 -0.20797807

pose_encoder.net.1.1.running_mean f4 [64]
000000 4d 0f a7 bf 6e c8 85 3f 97 39 c0 3f 93 f1 82 bd
       -1.3051544 1.0451791 1.5017575 -0.06393733
000010 64 0c 5e bf f7 a7 5a c0 09 ce be bf 9a d6 19 c0
       -0.86737657 -3.4165018 -1.4906627 -2.4037232
000020 17 f8 42 bf 86 da 43 bf db a4 56 bf b4 15 98 bf
       -0.76159805 -0.76505315 -0.838453 -1.1881623
000030 83 7f 16 be 7b 83 3e c0 51 3a b9 bf 21 6d 6e c0
       -0.1469708 -2.976775 -1.4470922 -3.7254107
000040 19 33 01 c0 63 7b 93 bf 69 65 f1 3f 17 91 64 c0
       -2.0187438 -1.152203 1.8859073 -3.5713556
000050 c7 ae 70 bf 61 25 dd bf 82 f5 65 bd 4c 80 c0 bd
       -0.9401669 -1.7277032 -0.056142338 -0.09399471
000060 9a 4b 08 3f df 7b 43 bf 99 60 7f c0 fc 76 c3 3f
       0.5324036 -0.7636089 -3.9902709 1.5270686
000070 ac e0 00 bf e9 d7 32 3c d9 c9 e9 3e 41 f1 0a 3f
       -0.5034282 0.010915735 0.4566181 0.54274374
000080 3c ae 82 3e a7 72 90 be 3b df 71 3f e4 11 19 c0
       0.25523555 -0.28212473 0.9448125 -2.391717
000090 20 12 a5 be 21 c4 6d 3f d2 79 22 c0 4f c9 02 40
       -0.3224039 0.92877394 -2.5386853 2.043537
0000a0 75 49 c2 bf 72 e3 e9 bf 66 22 e0 3f 7a 10 4b 3f
       -1.5178667 -1.8272536 1.7510498 0.79322016
0000b0 cb e0 a2 3e a3 fa 66 40 3b dd c0 bf 8d 7f ee bf
       0.31812128 3.6090477 -1.5067514 -1.8632675
0000c0 c4 5b 69 bf 9a 23 13 c0 76 72 db 3f c1 41 56 c0
       -0.9115565 -2.299048 1.7144306 -3.3477633
0000d0 ce 18 d4 be 01 f5 d8 3f 30 10 7f bf 30 ac 46 3f
       -0.41425174 1.6949769 -0.99634075 0.7760649
0000e0 72 0c 8e be 10 3a 55 c0 bc a9 cf 3f d6 a4 17 c0
       -0.2774387 -3.3316689 1.6223674 -2.3694358
0000f0 d6 e8 d7 be 83 c0 cb 3f 50 ba 41 c0 d6 e3 b1 bf
       -0.42169827 1.5918125 -3.0269966 -1.3897655

pose_encoder.net.1.1.running_var f4 [64]
000000 77 6b da 3f 8a 68 9a 40 1e 5f 80 40 5d 10 9f 40
       1.7064046 4.825261 4.011611 4.9707475
000010 a8 43 d4 3f 99 77 5d 42 c2 53 31 40 8a d7 14 40
       1.6583147 55.366795 2.7707372 2.3256555
000020 03 79 20 40 a2 1f f5 40 a2 c9 03 41 34 97 ef 3f
       2.507386 7.6601114 8.236727 1.8718019
000030 38 e9 e5 40 32 ac d2 40 b7 7f f0 40 bf cb 4a 40
       7.184719 6.58352 7.51559 3.1686857
000040 0f 7f f9 40 8a 0c 89 40 2d d7 a5 40 24 0c 68 41
       7.79676 4.2827806 5.1825166 14.502964
000050 69 9a 9a 40 6a 16 26 40 50 45 3a 40 c1 c0 a4 40
       4.831349 2.595118 2.9104805 5.1485295
000060 2d bf d1 41 c8 09 82 41 53 07 fe 40 10 79 3a 40
       26.218348 16.254776 7.938394 2.913639
000070 fa 3b 0e 41 6f a3 a2 3f 59 bd 36 40 03 57 b1 40
       8.889643 1.2706126 2.8553069 5.5418715
000080 c1 a7 ae 3f 39 c7 85 40 10 94 54 41 12 46 65 40
       1.3644944 4.180569 13.286148 3.5824018
000090 94 88 f1 3f d5 bc 60 40 df bf 1d 40 30 f0 8d 40
       1.8869805 3.5115254 2.464836 4.43557
0000a0 e7 14 81 40 95 6f cd 41 d9 7d f0 40 50 d8 b4 3f
       4.0338016 25.679483 7.5153623 1.4128513
0000b0 fb 46 da 3f 04 21 af 40 07 45 60 41 91 b2 4e 40
       1.7052912 5.47278 14.016852 3.2296488
0000c0 1a d3 1e 40 1a 8f 46 42 c1 41 af 3f 97 b9 f5 40
       2.4816346 49.639748 1.3691941 7.678905
0000d0 27 3a 15 40 74 2c a4 40 ab 1b fd 3f 7c 36 9c 40
       2.3316743 5.1304264 1.9774069 4.881651
0000e0 6f e3 fc 40 c9 39 a3 40 28 8c 07 40 af ed b4 40
       7.902763 5.100804 2.1179295 5.654014
0000f0 f3 93 b6 40 b0 2e 26 40 11 01 03 41 cc 8a 51 40
       5.70556 2.5965996 8.18776 3.2740965

pose_encoder.net.2.0.weight f4 [64, 64, 4]
000000 59 2c a6 be 3e c9 5d be 09 9e 10 be 4c 35 21 be
       -0.3245571 -0.21658799 -0.14122786 -0.15742987
000010 e4 ab 5c be 7b 4f 4a be f8 55 20 be 85 73 41 be
       -0.21549946 -0.19756882 -0.15657794 -0.18891723
000020 9c 60 14 bb 6e d0 d7 bc a9 0f d4 bd 47 9d 43 bd
       -0.0022640591 -0.026344504 -0.103545494 -0.047757413
000030 c6 d8 8d 3e 17 16 ca 3e 60 77 bf 3e bf 66 c9 3e
       0.27704448 0.39469978 0.37395763 0.39336202
000040 12 a2 f7 bd 4a 36 1f bc 63 4d 25 3d f0 0a 75 3d
       -0.12091459 -0.009717533 0.040357005 0.059824884
000050 60 11 ee 3c a4 86 74 3c ec f6 08 3e 00 0d 39 3e
       0.02906102 0.014924679 0.13375443 0.18071365
000060 6d ad 96 bd 9a 4c dc 3d db a2 1d 3e 1e 46 d3 3d
       -0.07357297 0.10756798 0.15394156 0.10316108
000070 d1 00 10 be 15 75 06 be 62 ec 6e be f1 ce 56 be
       -0.14062811 -0.13130601 -0.2333236 -0.2097738
000080 8d 77 3c bc cf cc 02 3c e3 47 a4 3c a2 c8 ae 3d
       -0.0115031125 0.0079834005 0.02005381 0.085343614
000090 46 7f 8e be 43 db 19 be 6e 8b e1 bd 7a 19 60 be
       -0.27831477 -0.15025048 -0.11012922 -0.21884719
0000a0 4e 3e d8 be 00 5c 97 be b8 a5 a0 be 47 f1 c0 be
       -0.42235035 -0.29562378 -0.31376433 -0.3768408
0000b0 de 4b fc 3a 34 d0 5d bd c0 c3 bc bd e3 78 60 be
       0.0019248684 -0.054153636 -0.09217024 -0.21921115
0000c0 1f 19 84 3d 6e b2 09 bd 86 b9 7c bd 18 7d 0b 3e
       0.06450104 -0.03361743 -0.061700366 0.13621938
0000d0 30 cb aa 3c 78 f0 fb bc 85 c4 c8 bd 5b d3 a0 3c
       0.02084884 -0.030754313 -0.09803108 0.019632032
0000e0 da 29 c4 3b ba 66 f9 bd 5a 68 d0 bd 74 6d 1c be
       0.0059864344 -0.12177797 -0.101761535 -0.15276128
0000f0 7e 46 1c 3e 63 20 8f 3e 31 65 27 3e 0b d3 2e 3e
       0.15261266 0.27954397 0.16347195 0.17072694
000100 9e 17 94 3e 47 a2 47 3e ed 74 b3 3d f6 6e 72 3e
       0.28924268 0.19495498 0.08762536 0.2367514
000110 2e 43 4a bd ac 9d f4 bd 00 1c 43 be 48 71 5f be
       -0.049380474 -0.11944136 -0.1905365 -0.21820557
000120 ac 13 0f bd 5d 5a 89 3d 80 67 59 3d 16 9c 2b bd
       -0.03493087 0.067066886 0.05307722 -0.041896902
000130 6a 8d 4b 3e fa 72 f7 3d da 5d 36 3e b1 3f 4d 3e
       0.19878164 0.12082477 0.17809239 0.20043828
000140 49 b1 8a be fa 36 ad be f1 b9 a1 be 22 ec ca be
       -0.27088383 -0.33831006 -0.31587175 -0.3963328
000150 c5 12 17 3e 15 61 8d 3d 20 f5 39 3e 1d 84 3a 3e
       0.14753254 0.069032826 0.18159914 0.1821446
000160 f1 e6 e6 3d 72 96 0f 3e fa 84 09 3e e6 5b 95 3b
       0.11274517 0.14022234 0.13429633 0.0045580743
000170 67 21 b0 be 48 19 92 be b4 dd c6 be 1c f4 b0 be
       -0.34400484 -0.28534913 -0.3884102 -0.3456124
000180 b6 a5 fd bd 59 64 ba bd 9f 80 32 bd 47 bd 28 be
       -0.123851225 -0.09101171 -0.043579694 -0.16478454
000190 0a 2c d7 3e 48 74 ae 3e 03 10 99 3e bc a6 c7 3e
       0.42025787 0.3407309 0.29895028 0.38994396
0001a0 f5 df ba bc 07 40 75 3d 61 e5 30 3e 87 b0 c5 bd
       -0.02281187 0.059875514 0.17275001 -0.096528105
0001b0 3f 23 c5 3b 4f 94 ad 3d 16 a2 b6 3a 28 b0 15 be
       0.0060161646 0.08475553 0.0013933803 -0.1461798
0001c0 d2 ad ae bb ce 4e 84 bd 3f 08 00 be f6 15 07 be
       -0.0053307796 -0.06460343 -0.12503146 -0.13191971
0001d0 94 cc 79 bc f6 f2 c5 bc b1 6a 62 3d 77 8f 96 3d
       -0.015246529 -0.024163704 0.05527753 0.073515825
0001e0 18 c7 a6 be 65 b0 65 be c1 2d 97 be fe 69 c9 be
       -0.3257377 -0.2243057 -0.29527095 -0.39338678
0001f0 eb c0 a1 bd e8 27 55 bd cc 8b a7 bd 78 27 18 3d
       -0.07898124 -0.05204001 -0.08180961 0.037147015
000200 85 9a c1 bd 27 7c 5a bc 60 f9 56 3d b4 20 9b 3c
       -0.094533004 -0.013335264 0.052483916 0.018936493
000210 0b 27 72 3e da f9 5c 3e d1 bb 40 3e 87 b3 32 3e
       0.23647706 0.21579686 0.18821646 0.17451297
000220 d1 5b cf 3d 6b 4f c6 3d f7 8e 2a bd d9 95 99 bd
       0.101249345 0.096831165 -0.04164025 -0.07499284
000230 71 f4 47 3e 4e 59 ad 3e c8 a1 90 3e df 80 56 3e
       0.19526841 0.33857197 0.2824843 0.20947598
000240 37 8e 9f be 08 ee 72 be 69 6d 00 be bf 62 71 be
       -0.3116319 -0.23723614 -0.12541737 -0.23572825
000250 04 dc 64 3e b5 41 20 bc 86 d9 2a bc ce 46 e3 3d
       0.22349554 -0.009781291 -0.010427838 0.11097489
000260 49 15 33 3c 59 ea 87 3c 90 18 a1 3d 1e f2 76 bd
       0.010930368 0.016591238 0.07866013 -0.060289495
000270 39 62 58 be f9 43 6c be a5 fd 8a be 0f 53 c2 bd
       -0.21131219 -0.23072805 -0.2714664 -0.094884984
000280 97 06 26 3e 6c 0d 0a 3e 9d 77 aa 3d bf 23 90 3d
       0.16213451 0.13481683 0.08323596 0.07038068
000290 ec 96 53 be 37 fd 23 be 85 e2 49 be 8e f7 30 be
       -0.20663041 -0.16014563 -0.19715317 -0.17281935
0002a0 83 34 0a 3e 82 59 df 3d ab 90 e2 3d aa 24 5f 3e
       0.13496594 0.10905744 0.110627495 0.2179133
0002b0 e4 95 14 be fd 87 f3 bd 09 bb 3a be 50 c9 12 be
       -0.14510304 -0.11891172 -0.18235411 -0.14334607
0002c0 66 f6 cb 3d 61 5f 0a bd b0 52 a5 3c dd 73 9d 3d
       0.09959106 -0.033782367 0.02018103 0.07688115
0002d0 6e bc 8f be b1 27 61 be f9 ea 53 be 47 41 27 be
       -0.28073448 -0.21987797 -0.20695104 -0.16333495
0002e0 91 40 67 be 1d 81 4b be cd 09 8a be da d4 b0 be
       -0.22583224 -0.19873472 -0.26960602 -0.34537393
0002f0 13 d9 bc bd 2a 02 ff bc 5b 9c 59 bd 32 58 56 be
       -0.09221091 -0.031128962 -0.053127628 -0.20932081
000300 c6 fc 8a bb 04 e7 81 3d e1 85 7a 3d eb fc 21 3d
       -0.0042415587 0.06342891 0.061162833 0.039547842
000310 a4 83 4a 3e d3 e9 c9 3d fc cb 55 3e a7 80 5e 3e
       0.1977678 0.098590516 0.20878595 0.21728764
000320 fe 6c 28 bd 50 fc 20 3e 46 8b 50 3e af 50 07 3d
       -0.041119568 0.1572125 0.20365629 0.03303593
000330 79 87 0c bf b2 6d 1d bf d9 e4 1c bf 4a 9e 33 bf
       -0.54894215 -0.61495507 -0.61286694 -0.70163405
000340 50 29 b6 bc c6 d3 56 bd 9c d7 70 bd 93 d7 c2 bd
       -0.022236496 -0.052448057 -0.05879937 -0.09513774
000350 de bc 4a be f6 71 86 bd 7f 87 dd bd 05 11 01 bc
       -0.1979861 -0.06564705 -0.108168595 -0.007877593
000360 1c b1 c7 bd b3 51 39 be 0a 4e 9c be ed 1a c2 be
       -0.09750578 -0.18097572 -0.3052829 -0.37911168
000370 90 ac 80 3c 4f 8e 48 3d a1 a0 a8 3c 46 db cf 3d
       0.015707284 0.04896384 0.020584406 0.10149245
000380 e9 a2 59 3e cb c4 f5 3c 5c 08 8b 3d 6b eb 03 3e
       0.21253552 0.030001065 0.06788704 0.12882774
000390 d7 1b 24 bf 49 d2 2f bf f8 c4 5c bf 3c 23 33 bf
       -0.6410498 -0.68680245 -0.8623805 -0.6997564
0003a0 21 41 28 3a 06 a9 e0 3d 24 09 2f 3e 22 b9 d9 3d
       0.00064183964 0.10969739 0.1709333 0.106310144
0003b0 ff 90 00 bf 78 3f 96 be 19 1f 2e be 70 7e d2 be
       -0.50221246 -0.29345298 -0.1700405 -0.4111209
0003c0 07 95 15 3e e6 6c 80 3e dc 55 04 3e 8c a4 06 3e
       0.1460763 0.25083083 0.12923378 0.13148707
0003d0 93 ee 73 be ed 62 cc bd f6 fd b6 3c bf 7e 4c bd
       -0.23821478 -0.09979806 0.022337895 -0.049925562
0003e0 6f 0d 91 be 79 56 6f be cb f7 77 be ff 65 bc bd
       -0.28330562 -0.2337283 -0.2421562 -0.09199142
0003f0 23 4b c1 3d b1 42 ca bc 1c fc e3 bc 26 ad 9e 3d
       0.09438159 -0.024690004 -0.027830176 0.07747869

pose_encoder.net.2.0.bias f4 [64]
000000 71 97 85 3e 61 4a 85 3c 4c 3e e7 bb be 0c cc 3c
       0.26092103 0.016270818 -0.007056987 0.02490842
000010 a8 94 bd 3d a6 ad 80 3d c5 8b 0a 3d d8 ea c5 3d
       0.092568696 0.06283121 0.0338247 0.096639335
000020 73 01 0a 3e f9 5b b7 3e 96 28 ae 3e e1 cc ca 3c
       0.13477115 0.35812357 0.3401534 0.024755897
000030 35 dc 23 3e 50 12 9b 3e 72 fb 6b 3d f2 d4 ad 3d
       0.16001971 0.3028741 0.057612844 0.08487882
000040 43 34 53 3e bb 11 f1 bc 6d df 3b 3e 2b 35 51 bd
       0.20625405 -0.0294274 0.18346949 -0.051076096
000050 8c e4 9d 3d 55 07 d2 3d b6 11 56 3d c1 30 d4 3d
       0.077096075 0.10255305 0.052262984 0.103608616
000060 b2 04 6b 3e 01 46 45 3e 4d ac dc 3d 56 54 28 3d
       0.2295101 0.19264986 0.10775051 0.041096054
000070 11 8f 90 bc a1 c6 80 3c 56 d8 a4 bb 10 0a 12 be
       -0.017646344 0.015719714 -0.005030672 -0.14261651
000080 d6 6e 6c 3e 04 b1 98 3d b9 29 a9 bd 0c 26 da 3d
       0.23089156 0.07455638 -0.08259911 0.10651788
000090 60 2a bb 3d 21 1a 20 3e 2f 1e 86 bd 41 e1 9c 3d
       0.09138942 0.15634967 -0.06548726 0.07660151
0000a0 96 fa 1e 3e 25 cb bd bd 3e c5 26 3e f8 31 ae 3e
       0.15525278 -0.09267262 0.1628618 0.34022498
0000b0 29 bc 9d 3c 18 15 19 bd 4d c2 63 3d a2 c2 a2 3c
       0.01925476 -0.037373632 0.05560522 0.019868199
0000c0 e1 01 08 3e 61 f2 f5 3c 87 56 f8 3d 5d 10 0a 3e
       0.13281967 0.030022802 0.12125879 0.13482805
0000d0 78 47 2d be 3e 65 6a 3d d0 de 95 bd 71 76 81 3e
       -0.16921794 0.05722546 -0.07317889 0.25285676
0000e0 72 9d 6b 3d 28 4f a6 3d 55 01 1d 3e 19 d9 a8 3a
       0.0575232 0.081205666 0.1533254 0.0012882083
0000f0 58 bd be 3d c2 82 2c 3e 39 5b c3 3d ba 9d a8 3d
       0.09313458 0.16846755 0.09538884 0.08233209

pose_encoder.net.2.1.weight f4 [64]
000000 88 91 54 3f 1d 97 12 3f 4c d3 2b 3f 81 40 f5 3e
       0.83034563 0.5726183 0.6711929 0.47900775
000010 95 3e 02 3f 73 6e 7b 3f 92 3a 8b 3f 64 91 43 3f
       0.5087674 0.9821541 1.0877249 0.76393723
000020 94 85 32 3f 0e 5a 37 3f 30 e4 2d 3f ff 51 31 3f
       0.69735074 0.7162179 0.6792631 0.6926574
000030 ac 4e ac 3f 22 2c 76 3f 63 47 ed 3e 2a 95 7e 3f
       1.3461509 0.9616109 0.46343526 0.99446356
000040 4d d7 66 3f fa 0f 76 3f fd 68 1a 3f 1f 57 b3 3f
       0.9017227 0.9611813 0.6031645 1.4010962
000050 cf 22 19 3f 2d b4 34 3f 39 a1 46 3f 6f 10 70 3f
       0.5981874 0.70587426 0.77589756 0.93775076
000060 af 34 14 3f 77 75 2f 3f 0f d6 26 3f 11 1e ee 3e
       0.5789289 0.6853861 0.6517038 0.46507314
000070 e1 47 2e 3f 62 95 18 3f 4a 10 27 3f 75 70 d2 3e
       0.6807843 0.5960294 0.6525923 0.41101423
000080 83 bd 2a 3f f6 6a 6b 3f e0 0f a8 3f 4e 43 50 3f
       0.6669542 0.91960084 1.3129845 0.813527
000090 1a f3 8a 3f 30 75 36 3f 84 83 12 3f be 88 f9 3e
       1.0855439 0.71272564 0.57231927 0.48737139
0000a0 77 46 78 3f 5e e8 cf 3e 1d 7c a8 3f cc b8 71 3f
       0.9698252 0.4060697 1.3162876 0.944226
0000b0 64 3a 7a 3f 38 2d 87 3f 93 55 36 3f a8 7c 76 3f
       0.9774535 1.0560675 0.71224326 0.9628396
0000c0 1d 98 81 3f 78 65 95 3f 4a dc 8a 3f cf 19 6c 3f
       1.0124546 1.1671591 1.0848477 0.9222688
0000d0 ab 2e 6c 3f 74 fd 4a 3f 30 5a 6b 3f fe b3 a3 3f
       0.9225871 0.7929299 0.9193449 1.2789304
0000e0 34 a3 77 3f c0 59 2a 3f b6 e5 3d 3f 86 e8 43 3f
       0.96733403 0.665432 0.74178636 0.7652668
0000f0 33 a4 9c 3f c9 82 7e 3f 87 0f fc 3e 42 7a 84 3f
       1.223761 0.9941831 0.49230596 1.034981

pose_encoder.net.2.1.bias f4 [64]
000000 7c 25 c0 be 3a 84 d7 3c 57 8e ff bd 8d 13 0e 3e
       -0.37528598 0.026308168 -0.12478321 0.13874646
000010 61 e5 a4 3e 16 67 6f bf e8 15 f1 bd 67 20 92 be
       0.32206252 -0.9351667 -0.117717564 -0.28540346
000020 e0 ff d2 be 8a 9f 22 be 63 7e b7 be ee 2d 8b be
       -0.41210842 -0.15881172 -0.35838613 -0.2718348
000030 9b 63 2c bf 8f e5 94 bf 40 2e 8c 3c c9 c7 bb be
       -0.67339486 -1.1632556 0.017111897 -0.3667586
000040 6d 2c 94 be a7 7a 05 3f 7e 77 96 3e a1 06 15 be
       -0.28940144 0.5214028 0.2938804 -0.1455331
000050 74 3a 59 3d a3 75 57 bf 23 4f de be cf 5f b7 bf
       0.05303426 -0.84163874 -0.43419752 -1.4326113
000060 89 c2 79 3e e9 22 ad 3e 30 a0 ea be 4d b8 12 be
       0.24390616 0.33815697 -0.45825338 -0.14328118
000070 17 b5 35 be 1f 10 3b 3e 88 5d 85 bd 2e 62 33 3f
       -0.17744862 0.18267868 -0.0651198 0.70071685
000080 9d 3e b1 be da 7b 99 be a5 a5 80 bd 3d 83 9c bd
       -0.34618083 -0.29977304 -0.06281594 -0.07642219
000090 b1 f6 58 bf bc d5 de be 00 cc 1c 3e 64 01 9e be
       -0.8475142 -0.4352244 0.15312195 -0.30860436
0000a0 09 a9 6b bd ab 82 a5 3e c8 62 09 bf c1 90 1a bf
       -0.05753425 0.32326254 -0.53666353 -0.60377127
0000b0 28 76 c5 3e f5 87 9d be ae 2a 66 3e 46 fc 96 be
       0.3856671 -0.3076779 0.22477219 -0.29489344
0000c0 ee d7 1f be 77 1e 97 bf 67 fc c3 be f9 8b d8 be
       -0.15609714 -1.1806172 -0.38278505 -0.4229429
0000d0 0c 66 8e bf 39 76 2b bf 80 ce 87 3f ea e5 87 be
       -1.1124892 -0.6697727 1.0609894 -0.26542598
0000e0 b0 78 98 bc 85 be 18 be 23 83 25 bf 56 2b 13 bf
       -0.018612236 -0.14916427 -0.64653224 -0.57488
0000f0 69 0a 96 be a7 d2 7b be a1 2a 7d 3f 02 f5 77 be
       -0.29304817 -0.24592076 0.9889317 -0.24214557

pose_encoder.net.2.1.running_mean f4 [64]
000000 70 18 12 c0 9e d5 2c 3f a3 00 13 bf 91 b3 61 bf
       -2.2827415 0.67513454 -0.57422847 -0.8816462
000010 30 b3 8d 3f 35 d5 2c 3f db 0c ef bc 90 e6 e9 bf
       1.1070309 0.6751283 -0.029180935 -1.8273487
000020 47 28 0f c0 68 45 00 c0 3d fe 63 c0 41 72 87 bf
       -2.2368333 -2.0042362 -3.5623925 -1.0581743
000030 20 69 9c c0 8a 04 21 c0 bd e3 0e 40 93 47 2b 40
       -4.8878326 -2.515902 2.23265 2.6762435
000040 8c fb a7 bf 41 e2 cd 3f 23 f8 22 3f be 40 12 c0
       -1.3123641 1.6084672 0.63659877 -2.2852015
000050 32 fc d2 be 1e 4b 3f bf 6f 21 3b 3f 11 11 62 bf
       -0.41208035 -0.74723995 0.7309789 -0.8830729
000060 91 35 04 c0 9b 07 dc bd a4 b0 28 c0 89 7f a1 3f
       -2.0657694 -0.10743638 -2.6357813 1.2617046
000070 2e a1 b4 3d 10 8e 28 40 98 05 3a bd 40 07 2d 40
       0.08819805 2.6336708 -0.04541549 2.7035675
000080 1c 54 60 c0 96 a2 6c bf d4 1a b5 3f 32 e1 1d 3f
       -3.5051336 -0.92435586 1.4148812 0.61671746
000090 28 a0 61 c0 29 9a c2 bf b9 5f c8 3f fd 90 40 bf
       -3.5254002 -1.5203296 1.5654212 -0.75221235
0000a0 5f 7c c9 3f 1c c8 84 3f 79 e6 00 c0 a4 42 ae 3e
       1.574108 1.0373569 -2.014067 0.34035218
0000b0 89 3c dd bf bc 4a 36 bf 16 99 4d 3f 99 a8 b3 be
       -1.7284099 -0.71207786 0.80311716 -0.35089567
0000c0 64 e5 18 c0 e4 24 63 bf 2f 5c f1 bf 4d 4f 3b c0
       -2.389001 -0.88728166 -1.8856257 -2.9267151
0000d0 8f 81 4c c0 ce fd 99 bf 43 b8 94 3f 88 94 42 c0
       -3.1954076 -1.203058 1.1618732 -3.0403156
0000e0 57 7d 6b bf f4 c7 c4 3e 6d cc 43 c0 7b 48 84 c0
       -0.9198813 0.38433802 -3.0593522 -4.1338477
0000f0 cb ef 39 c0 89 19 92 3e fd ed 20 c0 ab 8e d2 bf
       -2.9052608 0.28535107 -2.5145257 -1.6449789

pose_encoder.net.2.1.running_var f4 [64]
000000 89 79 92 41 11 6f ca 40 f3 82 04 41 74 72 4f 40
       18.309343 6.326058 8.28197 3.2413607
000010 f4 93 ad 40 39 81 33 41 b7 2e 13 42 e8 c6 1c 42
       5.4243107 11.2190485 36.79562 39.194244
000020 2b 99 97 40 28 51 e9 40 99 b5 6a 40 e2 17 0f 41
       4.7374473 7.291157 3.6673338 8.943331
000030 76 92 e9 41 54 66 e0 40 6c c8 ee 40 54 18 96 41
       29.196514 7.012491 7.4619656 18.761879
000040 5a 30 8d 41 e4 e9 a1 41 b4 8a bb 40 fd 23 87 42
       17.64861 20.239204 5.8606815 67.57029
000050 70 3f d3 40 4c 9e 8a 40 6d 5e 50 41 3d 06 8c 41
       6.601494 4.3318233 13.023053 17.503046
000060 38 2b 08 41 44 af f2 40 a7 66 a1 40 4a bc ba 40
       8.510551 7.5838947 5.043781 5.8354845
000070 80 23 dd 40 9c 87 89 40 cc 79 34 40 ce a2 90 40
       6.9105835 4.297804 2.819934 4.5198736
000080 01 36 ae 40 49 e3 dd 40 bf 18 e2 41 c9 92 09 41
       5.4440923 6.933995 28.262083 8.598336
000090 d1 66 02 41 61 ee d8 40 5a 5a a6 40 36 2c 90 40
       8.150102 6.779099 5.1985292 4.505397
0000a0 5f 63 04 41 07 62 6f 40 81 97 52 41 85 b2 8f 40
       8.2742605 3.740358 13.161988 4.490542
0000b0 26 9f 9d 41 93 49 cf 41 0a 05 1d 41 04 3b 52 41
       19.70271 25.910925 9.81373 13.139408
0000c0 a9 a7 a4 41 10 09 63 41 65 36 a5 41 65 a1 2a 41
       20.581865 14.189713 20.65156 10.664403
0000d0 6f a2 9a 40 d3 47 95 41 84 43 8a 41 54 21 c4 41
       4.8323283 18.66007 17.282967 24.516273
0000e0 d2 99 70 41 af 32 69 40 54 29 d5 40 5c 0c 1d 41
       15.037554 3.6437185 6.661295 9.815517
0000f0 7b 6b ce 41 95 76 63 41 4e 31 ed 40 06 75 a8 41
       25.80248 14.216451 7.4122686 21.05714

pose_encoder.net.3.weight f4 [32, 64, 3]
000000 db cd 05 3e 9c b3 7a 3d bb fc 08 be 18 68 56 3e
       0.13066809 0.061206445 -0.13377659 0.20938146
000010 16 4b 49 3d cb 09 80 be eb 4e 65 bd 67 c7 dd 3d
       0.049143873 -0.2500747 -0.055983465 0.108290486
000020 33 b2 ba 3d f8 ad 79 3e 9a 04 5a be 07 d5 3e bd
       0.0911602 0.2438277 -0.21290818 -0.046589877
000030 a1 43 58 3c 20 2b 83 bd eb 39 77 be ce b6 35 bf
       0.013199718 -0.0640471 -0.24143188 -0.7098206
000040 34 7e 2d be b0 d3 1b 3e 43 ae 88 be 9a ad c1 bd
       -0.16942674 0.15217471 -0.2669545 -0.0945694
000050 25 97 a9 3e 85 52 0e 3e 55 77 0b be 99 24 b7 be
       0.33123127 0.13898666 -0.1361974 -0.3577011
000060 36 b3 af be e7 b8 06 3e 8e c8 96 3e fe 53 8b be
       -0.34316415 0.13156472 0.29449886 -0.27212518
000070 3c fb 61 39 8d 0f d1 3e b8 dc 99 bc bc da 9f be
       0.00021551264 0.40832177 -0.018782005 -0.3122157
000080 79 28 a3 be 94 6c 59 be ef 31 ca bd 97 24 8b 3e
       -0.31866816 -0.21232826 -0.09872805 0.27176353
000090 4b 87 0a be dc 6a 84 bd 39 e0 7a 3d 55 2b 94 3b
       -0.13528173 -0.06465694 0.06124899 0.004521767
0000a0 17 dd 02 3e c1 e8 c1 be cf 8a b0 bc e7 ff a5 bd
       0.12779652 -0.3787289 -0.021550564 -0.0810545
0000b0 a7 f4 bf 3c 9e aa 63 3f 41 91 9b bc d4 b7 6b bf
       0.023432089 0.88932216 -0.01899016 -0.92077374
0000c0 70 39 b2 bd 39 14 0b 3e 2c 6b 65 3e ce c0 e2 3d
       -0.087023616 0.13581933 0.22404164 0.11071931
0000d0 00 d4 f5 bd 34 ab d2 bd fd b1 03 3f a8 e9 27 be
       -0.120033264 -0.10286561 0.51443464 -0.16397727
0000e0 a0 d2 d5 be d6 98 4b 3a 0a 51 8d bd 01 e9 45 be
       -0.41762257 0.000776661 -0.069002226 -0.19327165
0000f0 bf b0 62 3e b0 21 58 3d 70 0c bf be a9 bf 93 be
       0.22137736 0.052766502 -0.37314177 -0.28857163
000100 94 41 08 3e 5e 87 a6 3e 1e 97 0a 3e bb e2 ca bc
       0.13306266 0.32525152 0.13534209 -0.024766317
000110 bf 7d 5b 3d 5d 17 cd be fe a2 4e bd 40 13 2b 3e
       0.053586718 -0.40056887 -0.05044841 0.16706562
000120 c3 0a 79 be 7d 99 4e 3d a9 2a 03 3e 21 99 2e 3e
       -0.24320512 0.050439347 0.12809242 0.17050602
000130 25 0d ef 3d 7c 4d ad be 88 9c b7 be 98 55 2a 3d
       0.11672429 -0.33848178 -0.3586161 0.041585535
000140 d4 f5 20 3f 24 23 da be dd 85 2b 3d ec ad b7 3e
       0.62875104 -0.42604935 0.04187571 0.3587488
000150 a2 ab 8e 3e ba 8d b8 bd 82 16 7e be 0c 60 69 bd
       0.2786532 -0.09011407 -0.24813274 -0.056976363
000160 94 7c 15 3c 68 8b fb bd 0f 9a c4 3e 02 cc 85 bd
       0.00912394 -0.12282449 0.38398787 -0.06533052
000170 60 00 df be 6f 22 0c 3e b4 7e 30 3d ad fd 85 3e
       -0.43554974 0.1368501 0.043089584 0.26170102
000180 4a fc 94 3d 9f ca 03 3e 15 bc 4b 3e 65 5b ce 3e
       0.07274683 0.12870263 0.19895966 0.40304103
000190 71 61 b1 bb 2b a7 00 bf 9c 02 f6 bd a8 99 a0 bc
       -0.0054132272 -0.5025508 -0.120122164 -0.019604519
0001a0 9b 69 23 3e ee 12 03 bf 96 eb 97 3a 12 11 46 3f
       0.15958254 -0.5120076 0.0011590596 0.773698
0001b0 18 d0 af 3e 7e 58 c5 bd 3a f0 0e bf 55 65 be be
       0.3433845 -0.09636019 -0.55835307 -0.37186685
0001c0 89 df 50 bd 93 95 cf 3b 1c be 01 bd 0d 5a 68 bd
       -0.05099443 0.0063349693 -0.031675443 -0.056726504
0001d0 8b 4d ff bc f0 56 90 be b1 0e 56 3d 66 7d 59 3e
       -0.031164905 -0.28191328 0.052260105 0.21239242
0001e0 6b 96 7c be 61 a8 06 bd 90 70 61 3e b7 9e 7c bd
       -0.24666755 -0.032875422 0.22015595 -0.0616748
0001f0 32 b7 3c 3d 3e 41 83 bd e5 30 bd 3e 04 7b aa bb
       0.046073146 -0.06408928 0.36951366 -0.005202653
000200 02 8a 9d be 2f 6f bc bd 71 63 e0 3c d7 a6 87 3c
       -0.30769354 -0.09200894 0.027391167 0.016559048
000210 be 2e 7a bf 2e d5 69 bd 47 98 6d 3f 56 a3 95 bd
       -0.9772757 -0.05708807 0.9281048 -0.073065445
000220 71 2c 90 3c 9a 73 82 bd 37 5a 27 be 74 23 8a bc
       0.017599316 -0.063697055 -0.16343008 -0.016862608
000230 03 9c 79 3e 98 c9 ab 3d 96 39 eb bd de 41 8c be
       0.2437592 0.0838806 -0.11485593 -0.27394003
000240 c3 87 93 be ac 6a 43 3e de a3 1c 3f 51 ba 60 3e
       -0.28814515 0.19083661 0.6118754 0.21946074
000250 7f 63 15 3d 5a 5e cf be 00 a7 ca be f8 72 ac 3c
       0.03647184 -0.40501672 -0.39580536 0.021050915
000260 7f 41 ac 3e 4c 2c 41 3e 25 cf 16 3d a6 3b a4 bc
       0.3364372 0.18864554 0.036818642 -0.020047974
000270 63 44 90 3e 78 90 b7 bd 73 8c 29 bf d8 13 fb 3d
       0.28177175 -0.08963102 -0.66229934 0.12259644
000280 70 bd 08 bd 76 55 c2 be e2 d1 de 3e bf cb da 3d
       -0.033383787 -0.37955827 0.43519503 0.10683393
000290 f6 9a 1d 3e bb fb 7b bb b4 b9 04 bd 53 6f d7 3c
       0.15391144 -0.0038449604 -0.032403663 0.0262982
0002a0 81 de 43 be 7c d1 74 bd bd 75 c3 3e cc 28 b1 be
       -0.19127847 -0.059770092 0.38175765 -0.34601438
0002b0 87 31 45 bd e3 8d c4 3e e3 7c c4 3d 2e 15 69 3d
       -0.048142936 0.383895 0.09594133 0.056904964
0002c0 0b 6c 38 be fd 35 18 3e 1f 2a 2d bd 16 f4 20 be
       -0.18009965 0.14864345 -0.042276498 -0.15718111
0002d0 1b 1e 80 3e 59 ae 57 3d a6 c1 4f bc 67 e7 03 be
       0.2502297 0.052656505 -0.012680447 -0.12881242
0002e0 78 a4 8a bd 4d 13 2c 3e 21 4a 58 3f 0f d8 33 be
       -0.06769651 0.16804238 0.8448811 -0.17562889
0002f0 a7 38 24 bf 75 3c a8 3e 57 3e aa bd 4c 38 c2 be
       -0.64148945 0.32858625 -0.08312672 -0.37933576
000300 73 da a7 3d 84 35 db 3c d3 2a 79 bc 32 38 15 be
       0.08195963 0.026758917 -0.015207964 -0.14572218
000310 fe 3e 12 bd 38 4a 38 bc 35 23 01 3e 25 3f 9b 3c
       -0.035704605 -0.011248164 0.12611087 0.018951008
000320 63 00 17 3e 32 e6 27 bc 7c 17 47 bc 5b 79 e4 3c
       0.14746241 -0.010247754 -0.012151595 0.027889898
000330 7d 01 7f bd d0 26 aa bc 8b 0d 80 bc 81 5d 4d 3e
       -0.06225728 -0.02077046 -0.015631458 0.200552
000340 2a f7 92 3d 9c 84 02 3e 0a 66 08 bd 30 6e 81 bc
       0.07176049 0.12745899 -0.033300437 -0.015799612
000350 78 e5 9c bd 7c 83 99 3d ae 35 02 3d 91 df 59 3d
       -0.07660955 0.07495782 0.031789474 0.053191725
000360 5e 06 16 3d 8a 65 c0 3d 86 1e eb 3d c1 b5 1c 3e
       0.036627166 0.09394367 0.11480431 0.15303709
000370 6e 3c 92 3d 04 3e ce 3d 01 b2 00 be 3c fd 94 bd
       0.07140432 0.10070422 -0.12567903 -0.07274863
000380 b5 f7 d7 bd 22 dc b6 3e a8 0f 22 3e 6d 91 48 3e
       -0.10545293 0.35714823 0.15826285 0.19586726
000390 4b 77 13 be 15 c0 1e be 88 23 5d bd 0b 74 c6 bd
       -0.14400975 -0.15502961 -0.053988963 -0.09690102
0003a0 76 d2 a1 bd 75 51 5a be 76 58 8e 3c 8a 27 c3 bc
       -0.0790147 -0.21320136 0.017376166 -0.023822565
0003b0 33 0f 10 bd 82 82 2d be 21 6c 46 3d fd b8 0b be
       -0.035170745 -0.16944316 0.048442964 -0.13644786
0003c0 84 fb a5 3e aa 72 60 3e 7e f2 92 3e 0a 52 36 3d
       0.32418454 0.21918741 0.28700632 0.044511832
0003d0 cc 20 9f 3d be c7 4c 3d c0 ec 15 bd bf f1 61 bc
       0.077699274 0.049995176 -0.036602736 -0.013790547
0003e0 08 84 01 bd 54 06 0f 3e 6f 85 49 3d 84 8b 6a 3d
       -0.031620055 0.13967258 0.049199518 0.05726196
0003f0 59 25 89 bd 0e d7 02 bd 2b bb ea bc c6 e3 9d 3e
       -0.066965766 -0.031943373 -0.028653702 0.3083784

pose_encoder.net.3.bias f4 [32]
000000 28 f4 59 bc 18 2a 2c be 84 ac f3 3c da d3 95 3c
       -0.01330284 -0.16812932 0.029745348 0.018289495
000010 7a 79 0c bc fc 92 02 3c 07 04 55 bc 68 da 08 3e
       -0.008573884 0.007969614 -0.0130014485 0.13364565
000020 4f e6 ad bd bc 3e f0 bd 2b 05 d8 bd 41 04 2c bd
       -0.084911935 -0.11730716 -0.10547861 -0.041996244
000030 c6 bb 1e bd 70 40 0e 3e 2a 50 21 3d 3c 0d 1e bd
       -0.038753293 0.13891768 0.03938309 -0.03858684
000040 b0 ea 2e bd fb 94 be bd e0 bd 1a 3c 05 c1 f8 bc
       -0.042704284 -0.093057595 0.009444684 -0.030365476
000050 c9 b0 d5 bb 62 cd a0 bd 51 ac ab 3d 13 22 55 3d
       -0.0065213186 -0.07851674 0.08382476 0.05203445
000060 28 38 0f bb ce 04 b3 3d 47 7e 22 ba 51 29 58 3d
       -0.002185354 0.08741151 -0.00061986264 0.052773777
000070 38 77 4d 3d 57 10 b2 3c fb 1e c5 3c ee e0 1a bd
       0.050162524 0.021736307 0.024062624 -0.037812166
